node {
  name: "global_step"
  op: "Variable"
  attr {
    key: "_output_shapes"
    value {
      list {
        shape {
        }
      }
    }
  }
  attr {
    key: "container"
    value {
      s: ""
    }
  }
  attr {
    key: "dtype"
    value {
      type: DT_INT64
    }
  }
  attr {
    key: "shape"
    value {
      shape {
      }
    }
  }
  attr {
    key: "shared_name"
    value {
      s: ""
    }
  }
}
node {
  name: "global_step/Initializer/zeros"
  op: "Const"
  attr {
    key: "_class"
    value {
      list {
        s: "loc:@global_step"
      }
    }
  }
  attr {
    key: "_output_shapes"
    value {
      list {
        shape {
        }
      }
    }
  }
  attr {
    key: "dtype"
    value {
      type: DT_INT64
    }
  }
  attr {
    key: "value"
    value {
      tensor {
        dtype: DT_INT64
        tensor_shape {
        }
        int64_val: 0
      }
    }
  }
}
node {
  name: "global_step/Assign"
  op: "Assign"
  input: "global_step"
  input: "global_step/Initializer/zeros"
  attr {
    key: "T"
    value {
      type: DT_INT64
    }
  }
  attr {
    key: "_class"
    value {
      list {
        s: "loc:@global_step"
      }
    }
  }
  attr {
    key: "_output_shapes"
    value {
      list {
        shape {
        }
      }
    }
  }
  attr {
    key: "use_locking"
    value {
      b: true
    }
  }
  attr {
    key: "validate_shape"
    value {
      b: true
    }
  }
}
node {
  name: "global_step/read"
  op: "Identity"
  input: "global_step"
  attr {
    key: "T"
    value {
      type: DT_INT64
    }
  }
  attr {
    key: "_class"
    value {
      list {
        s: "loc:@global_step"
      }
    }
  }
  attr {
    key: "_output_shapes"
    value {
      list {
        shape {
        }
      }
    }
  }
}
node {
  name: "Const"
  op: "Const"
  attr {
    key: "_output_shapes"
    value {
      list {
        shape {
          dim {
            size: 2455
          }
        }
      }
    }
  }
  attr {
    key: "dtype"
    value {
      type: DT_FLOAT
    }
  }
  attr {
    key: "value"
    value {
      tensor {
        dtype: DT_FLOAT
        tensor_shape {
          dim {
            size: 2455
          }
        }
        tensor_content: "…"
      }
    }
  }
}
node {
  name: "Const_1"
  op: "Const"
  attr {
    key: "_output_shapes"
    value {
      list {
        shape {
          dim {
            size: 2455
          }
        }
      }
    }
  }
  attr {
    key: "dtype"
    value {
      type: DT_FLOAT
    }
  }
  attr {
    key: "value"
    value {
      tensor {
        dtype: DT_FLOAT
        tensor_shape {
          dim {
            size: 2455
          }
        }
        tensor_content: "…"
      }
    }
  }
}
node {
  name: "Const_2"
  op: "Const"
  attr {
    key: "_output_shapes"
    value {
      list {
        shape {
          dim {
            size: 2455
          }
        }
      }
    }
  }
  attr {
    key: "dtype"
    value {
      type: DT_FLOAT
    }
  }
  attr {
    key: "value"
    value {
      tensor {
        dtype: DT_FLOAT
        tensor_shape {
          dim {
            size: 2455
          }
        }
        tensor_content: "…"
      }
    }
  }
}
node {
  name: "SparseTensor/indices"
  op: "Const"
  attr {
    key: "_output_shapes"
    value {
      list {
        shape {
          dim {
            size: 2455
          }
          dim {
            size: 2
          }
        }
      }
    }
  }
  attr {
    key: "dtype"
    value {
      type: DT_INT64
    }
  }
  attr {
    key: "value"
    value {
      tensor {
        dtype: DT_INT64
        tensor_shape {
          dim {
            size: 2455
          }
          dim {
            size: 2
          }
        }
        tensor_content: "…"
      }
    }
  }
}
node {
  name: "SparseTensor/values"
  op: "Const"
  attr {
    key: "_output_shapes"
    value {
      list {
        shape {
          dim {
            size: 2455
          }
        }
      }
    }
  }
  attr {
    key: "dtype"
    value {
      type: DT_STRING
    }
  }
  attr {
    key: "value"
    value {
      tensor {
        dtype: DT_STRING
        tensor_shape {
          dim {
            size: 2455
          }
        }
        string_val: "92128"
        string_val: "92117"
        string_val: "92107"
        string_val: "92083"
        string_val: "91911"
        string_val: "92026"
        string_val: "92029"
        string_val: "92154"
        string_val: "92562"
        string_val: "91962"
        string_val: "92004"
        string_val: "91977"
        string_val: "92037"
        string_val: "91978"
        string_val: "92101"
        string_val: "92064"
        string_val: "92071"
        string_val: "92127"
        string_val: "92010"
        string_val: "91913"
        string_val: "92082"
        string_val: "92154"
        string_val: "92109"
        string_val: "91977"
        string_val: "92562"
        string_val: "92082"
        string_val: "92130"
        string_val: "92101"
        string_val: "92127"
        string_val: "92111"
        string_val: "92110"
        string_val: "92054"
        string_val: "92091"
        string_val: "92037"
        string_val: "92086"
        string_val: "92040"
        string_val: "92111"
        string_val: "91977"
        string_val: "92116"
        string_val: "92009"
        string_val: "92122"
        string_val: "92019"
        string_val: "92105"
        string_val: "92004"
        string_val: "92122"
        string_val: "92024"
        string_val: "91945"
        string_val: "92075"
        string_val: "92040"
        string_val: "92101"
        string_val: "92131"
        string_val: "92057"
        string_val: "92124"
        string_val: "92109"
        string_val: "92115"
        string_val: "92037"
        string_val: "92004"
        string_val: "92058"
        string_val: "92071"
        string_val: "92102"
        string_val: "92118"
        string_val: "92037"
        string_val: "92139"
        string_val: "92101"
        string_val: "92107"
        string_val: "92154"
        string_val: "91977"
        string_val: "92081"
        string_val: "92117"
        string_val: "92081"
        string_val: "92109"
        string_val: "91945"
        string_val: "92054"
        string_val: "92115"
        string_val: "92037"
        string_val: "92020"
        string_val: "92119"
        string_val: "92009"
        string_val: "92065"
        string_val: "92129"
        string_val: "92037"
        string_val: "92057"
        string_val: "92064"
        string_val: "92037"
        string_val: "92101"
        string_val: "92118"
        string_val: "92115"
        string_val: "91941"
        string_val: "92101"
        string_val: "92037"
        string_val: "92004"
        string_val: "92065"
        string_val: "92027"
        string_val: "91911"
        string_val: "92127"
        string_val: "92061"
        string_val: "92009"
        string_val: "92126"
        string_val: "92037"
        string_val: "92064"
        string_val: "92008"
        string_val: "92154"
        string_val: "91977"
        string_val: "92007"
        string_val: "92562"
        string_val: "92113"
        string_val: "91977"
        string_val: "92107"
        string_val: "92067"
        string_val: "92021"
        string_val: "92082"
        string_val: "92040"
        string_val: "92007"
        string_val: "92040"
        string_val: "91942"
        string_val: "92104"
        string_val: "92105"
        string_val: "92110"
        string_val: "92029"
        string_val: "92105"
        string_val: "92082"
        string_val: "92008"
        string_val: "92027"
        string_val: "92105"
        string_val: "92126"
        string_val: "92057"
        string_val: "92026"
        string_val: "92037"
        string_val: "92109"
        string_val: "91913"
        string_val: "92082"
        string_val: "92081"
        string_val: "92040"
        string_val: "92003"
        string_val: "92131"
        string_val: "91915"
        string_val: "91913"
        string_val: "92025"
        string_val: "92010"
        string_val: "91977"
        string_val: "91942"
        string_val: "92075"
        string_val: "92106"
        string_val: "92562"
        string_val: "92067"
        string_val: "92009"
        string_val: "91911"
        string_val: "92105"
        string_val: "91977"
        string_val: "92111"
        string_val: "92111"
        string_val: "92101"
        string_val: "92104"
        string_val: "92037"
        string_val: "92103"
        string_val: "92069"
        string_val: "92003"
        string_val: "92037"
        string_val: "91913"
        string_val: "92028"
        string_val: "91977"
        string_val: "91902"
        string_val: "92091"
        string_val: "91911"
        string_val: "92057"
        string_val: "92040"
        string_val: "92069"
        string_val: "92040"
        string_val: "92131"
        string_val: "92065"
        string_val: "92592"
        string_val: "92115"
        string_val: "92019"
        string_val: "92123"
        string_val: "91901"
        string_val: "91915"
        string_val: "92115"
        string_val: "92120"
        string_val: "92129"
        string_val: "92025"
        string_val: "92029"
        string_val: "92104"
        string_val: "91935"
        string_val: "91915"
        string_val: "92103"
        string_val: "92057"
        string_val: "91941"
        string_val: "91913"
        string_val: "92101"
        string_val: "92064"
        string_val: "92109"
        string_val: "91980"
        string_val: "92106"
        string_val: "92025"
        string_val: "92101"
        string_val: "91911"
        string_val: "92107"
        string_val: "91914"
        string_val: "92037"
        string_val: "92110"
        string_val: "92025"
        string_val: "92101"
        string_val: "92027"
        string_val: "92109"
        string_val: "92562"
        string_val: "91901"
        string_val: "92124"
        string_val: "92083"
        string_val: "92130"
        string_val: "92592"
        string_val: "92029"
        string_val: "92120"
        string_val: "92119"
        string_val: "92054"
        string_val: "92078"
        string_val: "92086"
        string_val: "92130"
        string_val: "92154"
        string_val: "91906"
        string_val: "91935"
        string_val: "92592"
        string_val: "91913"
        string_val: "92019"
        string_val: "92116"
        string_val: "91911"
        string_val: "92115"
        string_val: "92037"
        string_val: "92025"
        string_val: "91935"
        string_val: "92019"
        string_val: "92123"
        string_val: "92104"
        string_val: "92081"
        string_val: "92119"
        string_val: "91902"
        string_val: "92060"
        string_val: "92118"
        string_val: "91901"
        string_val: "92129"
        string_val: "91945"
        string_val: "91905"
        string_val: "91913"
        string_val: "91913"
        string_val: "91906"
        string_val: "92064"
        string_val: "92101"
        string_val: "92101"
        string_val: "92040"
        string_val: "92124"
        string_val: "92037"
        string_val: "92037"
        string_val: "92154"
        string_val: "92102"
        string_val: "92054"
        string_val: "92011"
        string_val: "92154"
        string_val: "92081"
        string_val: "92019"
        string_val: "92119"
        string_val: "92019"
        string_val: "92101"
        string_val: "92064"
        string_val: "92029"
        string_val: "92081"
        string_val: "92124"
        string_val: "91942"
        string_val: "92057"
        string_val: "92120"
        string_val: "92101"
        string_val: "92019"
        string_val: "91901"
        string_val: "92110"
        string_val: "92106"
        string_val: "92025"
        string_val: "92024"
        string_val: "92036"
        string_val: "92009"
        string_val: "92117"
        string_val: "92108"
        string_val: "92040"
        string_val: "92027"
        string_val: "92021"
        string_val: "92064"
        string_val: "92110"
        string_val: "92014"
        string_val: "92103"
        string_val: "91941"
        string_val: "91911"
        string_val: "92562"
        string_val: "92075"
        string_val: "92106"
        string_val: "92054"
        string_val: "92111"
        string_val: "92081"
        string_val: "92107"
        string_val: "92009"
        string_val: "92107"
        string_val: "92069"
        string_val: "92004"
        string_val: "92120"
        string_val: "92082"
        string_val: "92124"
        string_val: "92026"
        string_val: "91941"
        string_val: "92081"
        string_val: "92057"
        string_val: "92067"
        string_val: "92040"
        string_val: "92126"
        string_val: "92010"
        string_val: "92101"
        string_val: "92103"
        string_val: "92120"
        string_val: "91978"
        string_val: "92111"
        string_val: "91978"
        string_val: "92082"
        string_val: "92131"
        string_val: "92104"
        string_val: "91950"
        string_val: "92071"
        string_val: "92057"
        string_val: "92110"
        string_val: "92107"
        string_val: "92103"
        string_val: "92026"
        string_val: "92562"
        string_val: "92109"
        string_val: "92084"
        string_val: "92111"
        string_val: "92106"
        string_val: "92562"
        string_val: "92104"
        string_val: "92113"
        string_val: "92111"
        string_val: "92109"
        string_val: "92101"
        string_val: "92117"
        string_val: "91913"
        string_val: "92117"
        string_val: "92128"
        string_val: "92109"
        string_val: "92036"
        string_val: "91911"
        string_val: "92562"
        string_val: "92021"
        string_val: "92024"
        string_val: "92083"
        string_val: "92061"
        string_val: "92029"
        string_val: "92021"
        string_val: "92011"
        string_val: "92119"
        string_val: "92011"
        string_val: "92106"
        string_val: "92115"
        string_val: "92109"
        string_val: "91941"
        string_val: "92027"
        string_val: "91950"
        string_val: "92110"
        string_val: "92124"
        string_val: "92037"
        string_val: "92118"
        string_val: "91977"
        string_val: "92103"
        string_val: "92139"
        string_val: "92111"
        string_val: "91916"
        string_val: "92028"
        string_val: "92008"
        string_val: "91902"
        string_val: "92130"
        string_val: "92131"
        string_val: "92057"
        string_val: "92028"
        string_val: "92010"
        string_val: "92562"
        string_val: "92004"
        string_val: "92127"
        string_val: "92108"
        string_val: "92065"
        string_val: "92562"
        string_val: "91977"
        string_val: "92029"
        string_val: "92101"
        string_val: "92004"
        string_val: "91934"
        string_val: "92127"
        string_val: "92122"
        string_val: "92019"
        string_val: "92127"
        string_val: "92103"
        string_val: "92057"
        string_val: "92116"
        string_val: "91962"
        string_val: "92025"
        string_val: "92109"
        string_val: "92109"
        string_val: "92078"
        string_val: "91935"
        string_val: "91977"
        string_val: "92109"
        string_val: "92130"
        string_val: "92008"
        string_val: "92078"
        string_val: "92109"
        string_val: "92106"
        string_val: "91978"
        string_val: "92126"
        string_val: "92004"
        string_val: "92108"
        string_val: "91902"
        string_val: "91913"
        string_val: "92019"
        string_val: "92054"
        string_val: "92061"
        string_val: "92128"
        string_val: "92057"
        string_val: "92057"
        string_val: "92081"
        string_val: "92081"
        string_val: "92124"
        string_val: "92004"
        string_val: "92065"
        string_val: "92122"
        string_val: "92036"
        string_val: "92058"
        string_val: "92562"
        string_val: "91902"
        string_val: "92004"
        string_val: "92067"
        string_val: "92011"
        string_val: "91941"
        string_val: "92037"
        string_val: "92105"
        string_val: "91902"
        string_val: "92061"
        string_val: "92115"
        string_val: "92115"
        string_val: "92101"
        string_val: "92004"
        string_val: "92109"
        string_val: "92081"
        string_val: "92117"
        string_val: "92120"
        string_val: "92037"
        string_val: "91945"
        string_val: "92105"
        string_val: "91977"
        string_val: "92126"
        string_val: "92037"
        string_val: "92117"
        string_val: "92054"
        string_val: "92086"
        string_val: "92126"
        string_val: "92071"
        string_val: "92086"
        string_val: "91942"
        string_val: "92109"
        string_val: "92105"
        string_val: "91932"
        string_val: "92101"
        string_val: "92037"
        string_val: "91910"
        string_val: "91941"
        string_val: "91911"
        string_val: "92127"
        string_val: "92037"
        string_val: "92037"
        string_val: "92054"
        string_val: "92103"
        string_val: "92025"
        string_val: "92101"
        string_val: "92119"
        string_val: "92119"
        string_val: "91913"
        string_val: "92101"
        string_val: "92037"
        string_val: "91915"
        string_val: "92128"
        string_val: "92101"
        string_val: "91941"
        string_val: "92086"
        string_val: "91942"
        string_val: "92131"
        string_val: "92562"
        string_val: "92116"
        string_val: "92101"
        string_val: "91950"
        string_val: "92116"
        string_val: "91913"
        string_val: "92028"
        string_val: "92075"
        string_val: "92004"
        string_val: "92128"
        string_val: "92003"
        string_val: "92054"
        string_val: "91962"
        string_val: "91913"
        string_val: "92004"
        string_val: "92026"
        string_val: "92131"
        string_val: "92027"
        string_val: "92007"
        string_val: "91913"
        string_val: "92111"
        string_val: "92139"
        string_val: "91942"
        string_val: "92054"
        string_val: "92105"
        string_val: "92122"
        string_val: "92078"
        string_val: "92026"
        string_val: "92592"
        string_val: "92154"
        string_val: "92069"
        string_val: "92592"
        string_val: "92118"
        string_val: "92057"
        string_val: "92127"
        string_val: "92003"
        string_val: "91913"
        string_val: "91911"
        string_val: "92056"
        string_val: "92040"
        string_val: "92101"
        string_val: "92119"
        string_val: "91902"
        string_val: "91902"
        string_val: "92004"
        string_val: "92122"
        string_val: "91978"
        string_val: "92028"
        string_val: "91977"
        string_val: "92116"
        string_val: "92106"
        string_val: "92082"
        string_val: "92014"
        string_val: "92129"
        string_val: "92109"
        string_val: "91901"
        string_val: "91901"
        string_val: "92122"
        string_val: "92008"
        string_val: "92029"
        string_val: "92107"
        string_val: "92108"
        string_val: "92562"
        string_val: "92069"
        string_val: "92037"
        string_val: "92058"
        string_val: "92026"
        string_val: "92114"
        string_val: "92109"
        string_val: "92037"
        string_val: "92101"
        string_val: "92154"
        string_val: "91911"
        string_val: "92108"
        string_val: "92173"
        string_val: "92101"
        string_val: "92563"
        string_val: "92091"
        string_val: "91942"
        string_val: "92054"
        string_val: "92057"
        string_val: "91915"
        string_val: "92037"
        string_val: "92025"
        string_val: "91977"
        string_val: "92128"
        string_val: "92086"
        string_val: "91942"
        string_val: "92126"
        string_val: "92106"
        string_val: "92111"
        string_val: "91913"
        string_val: "92008"
        string_val: "91915"
        string_val: "92067"
        string_val: "92011"
        string_val: "92036"
        string_val: "92065"
        string_val: "92009"
        string_val: "92105"
        string_val: "92008"
        string_val: "92101"
        string_val: "92061"
        string_val: "92057"
        string_val: "92128"
        string_val: "92111"
        string_val: "92009"
        string_val: "92139"
        string_val: "92083"
        string_val: "92129"
        string_val: "92014"
        string_val: "91932"
        string_val: "92110"
        string_val: "92019"
        string_val: "92019"
        string_val: "91977"
        string_val: "91978"
        string_val: "91901"
        string_val: "91913"
        string_val: "92562"
        string_val: "92082"
        string_val: "92119"
        string_val: "91910"
        string_val: "91902"
        string_val: "92562"
        string_val: "91911"
        string_val: "92116"
        string_val: "91942"
        string_val: "92114"
        string_val: "91941"
        string_val: "92107"
        string_val: "92120"
        string_val: "91941"
        string_val: "92086"
        string_val: "92083"
        string_val: "92061"
        string_val: "92120"
        string_val: "92108"
        string_val: "92109"
        string_val: "92592"
        string_val: "92139"
        string_val: "92037"
        string_val: "91977"
        string_val: "92036"
        string_val: "92054"
        string_val: "92562"
        string_val: "92057"
        string_val: "92130"
        string_val: "92110"
        string_val: "92056"
        string_val: "92083"
        string_val: "92054"
        string_val: "92091"
        string_val: "92127"
        string_val: "92027"
        string_val: "92128"
        string_val: "92109"
        string_val: "92128"
        string_val: "92029"
        string_val: "92019"
        string_val: "92118"
        string_val: "92107"
        string_val: "92106"
        string_val: "92014"
        string_val: "91906"
        string_val: "92082"
        string_val: "92117"
        string_val: "91950"
        string_val: "92082"
        string_val: "92119"
        string_val: "92124"
        string_val: "92114"
        string_val: "92109"
        string_val: "91910"
        string_val: "92173"
        string_val: "92106"
        string_val: "92037"
        string_val: "92025"
        string_val: "92021"
        string_val: "92056"
        string_val: "92118"
        string_val: "92066"
        string_val: "92111"
        string_val: "92057"
        string_val: "92091"
        string_val: "92107"
        string_val: "92109"
        string_val: "92029"
        string_val: "92036"
        string_val: "92106"
        string_val: "92124"
        string_val: "92101"
        string_val: "92037"
        string_val: "91977"
        string_val: "92057"
        string_val: "92081"
        string_val: "91945"
        string_val: "92075"
        string_val: "92101"
        string_val: "92009"
        string_val: "92091"
        string_val: "92562"
        string_val: "92116"
        string_val: "92021"
        string_val: "92037"
        string_val: "92117"
        string_val: "92020"
        string_val: "91945"
        string_val: "92025"
        string_val: "91945"
        string_val: "91910"
        string_val: "91950"
        string_val: "91902"
        string_val: "92004"
        string_val: "92066"
        string_val: "92102"
        string_val: "92026"
        string_val: "92120"
        string_val: "91977"
        string_val: "91941"
        string_val: "91950"
        string_val: "91950"
        string_val: "92127"
        string_val: "92008"
        string_val: "91914"
        string_val: "92056"
        string_val: "91977"
        string_val: "92011"
        string_val: "92057"
        string_val: "92057"
        string_val: "92562"
        string_val: "91950"
        string_val: "92040"
        string_val: "92014"
        string_val: "92102"
        string_val: "92071"
        string_val: "91905"
        string_val: "92029"
        string_val: "92119"
        string_val: "92026"
        string_val: "92008"
        string_val: "92027"
        string_val: "92084"
        string_val: "92009"
        string_val: "92037"
        string_val: "92037"
        string_val: "92126"
        string_val: "92026"
        string_val: "92054"
        string_val: "92107"
        string_val: "92011"
        string_val: "92127"
        string_val: "92139"
        string_val: "92057"
        string_val: "92004"
        string_val: "92130"
        string_val: "92117"
        string_val: "92104"
        string_val: "92154"
        string_val: "92026"
        string_val: "92064"
        string_val: "92024"
        string_val: "92064"
        string_val: "92129"
        string_val: "92101"
        string_val: "91945"
        string_val: "92113"
        string_val: "92007"
        string_val: "92064"
        string_val: "92026"
        string_val: "92037"
        string_val: "92054"
        string_val: "92154"
        string_val: "92029"
        string_val: "92119"
        string_val: "91977"
        string_val: "91978"
        string_val: "92562"
        string_val: "92067"
        string_val: "92113"
        string_val: "92091"
        string_val: "92026"
        string_val: "91913"
        string_val: "92083"
        string_val: "92075"
        string_val: "92113"
        string_val: "92562"
        string_val: "92057"
        string_val: "92011"
        string_val: "92113"
        string_val: "92037"
        string_val: "92117"
        string_val: "92040"
        string_val: "92019"
        string_val: "92102"
        string_val: "92019"
        string_val: "92102"
        string_val: "92127"
        string_val: "92106"
        string_val: "92025"
        string_val: "92128"
        string_val: "92562"
        string_val: "92131"
        string_val: "92120"
        string_val: "92020"
        string_val: "92119"
        string_val: "92119"
        string_val: "92110"
        string_val: "92011"
        string_val: "92127"
        string_val: "92101"
        string_val: "92101"
        string_val: "92004"
        string_val: "92102"
        string_val: "92069"
        string_val: "92114"
        string_val: "92114"
        string_val: "92117"
        string_val: "92014"
        string_val: "92111"
        string_val: "92082"
        string_val: "92091"
        string_val: "92130"
        string_val: "92126"
        string_val: "92111"
        string_val: "91945"
        string_val: "92064"
        string_val: "92054"
        string_val: "92124"
        string_val: "92040"
        string_val: "92115"
        string_val: "92081"
        string_val: "92127"
        string_val: "92019"
        string_val: "92117"
        string_val: "92029"
        string_val: "92009"
        string_val: "92562"
        string_val: "92069"
        string_val: "91913"
        string_val: "92056"
        string_val: "92106"
        string_val: "92109"
        string_val: "92113"
        string_val: "92019"
        string_val: "92111"
        string_val: "92105"
        string_val: "92154"
        string_val: "92071"
        string_val: "92120"
        string_val: "92127"
        string_val: "92106"
        string_val: "91901"
        string_val: "92019"
        string_val: "92091"
        string_val: "92014"
        string_val: "92122"
        string_val: "92106"
        string_val: "92562"
        string_val: "92084"
        string_val: "92025"
        string_val: "92025"
        string_val: "92027"
        string_val: "92107"
        string_val: "92127"
        string_val: "92128"
        string_val: "92119"
        string_val: "91913"
        string_val: "91913"
        string_val: "92104"
        string_val: "92103"
        string_val: "92119"
        string_val: "92004"
        string_val: "92081"
        string_val: "91977"
        string_val: "92029"
        string_val: "92173"
        string_val: "92116"
        string_val: "91913"
        string_val: "92054"
        string_val: "91977"
        string_val: "92025"
        string_val: "91978"
        string_val: "92110"
        string_val: "92106"
        string_val: "92037"
        string_val: "92128"
        string_val: "92562"
        string_val: "92115"
        string_val: "92007"
        string_val: "92107"
        string_val: "91901"
        string_val: "92107"
        string_val: "92595"
        string_val: "92139"
        string_val: "92120"
        string_val: "92029"
        string_val: "92081"
        string_val: "92014"
        string_val: "92007"
        string_val: "92592"
        string_val: "92562"
        string_val: "92103"
        string_val: "92064"
        string_val: "92130"
        string_val: "92109"
        string_val: "92123"
        string_val: "92011"
        string_val: "92106"
        string_val: "92122"
        string_val: "92595"
        string_val: "91945"
        string_val: "92123"
        string_val: "91906"
        string_val: "91977"
        string_val: "92106"
        string_val: "92117"
        string_val: "91941"
        string_val: "92101"
        string_val: "92109"
        string_val: "92037"
        string_val: "92024"
        string_val: "92103"
        string_val: "92105"
        string_val: "92154"
        string_val: "92071"
        string_val: "92065"
        string_val: "92056"
        string_val: "91913"
        string_val: "92106"
        string_val: "92004"
        string_val: "92084"
        string_val: "92106"
        string_val: "92562"
        string_val: "91962"
        string_val: "92113"
        string_val: "91932"
        string_val: "92113"
        string_val: "92027"
        string_val: "92123"
        string_val: "92108"
        string_val: "92592"
        string_val: "92109"
        string_val: "91942"
        string_val: "92106"
        string_val: "92054"
        string_val: "92056"
        string_val: "92037"
        string_val: "92115"
        string_val: "92127"
        string_val: "92139"
        string_val: "92117"
        string_val: "92101"
        string_val: "92010"
        string_val: "92054"
        string_val: "92562"
        string_val: "92021"
        string_val: "92019"
        string_val: "92118"
        string_val: "92122"
        string_val: "92105"
        string_val: "91932"
        string_val: "92106"
        string_val: "92117"
        string_val: "92056"
        string_val: "92028"
        string_val: "92101"
        string_val: "92131"
        string_val: "92056"
        string_val: "91901"
        string_val: "92028"
        string_val: "92019"
        string_val: "92120"
        string_val: "92004"
        string_val: "92078"
        string_val: "91902"
        string_val: "92003"
        string_val: "92071"
        string_val: "92029"
        string_val: "92026"
        string_val: "92040"
        string_val: "91977"
        string_val: "92118"
        string_val: "91950"
        string_val: "92113"
        string_val: "92086"
        string_val: "91932"
        string_val: "92054"
        string_val: "91913"
        string_val: "92116"
        string_val: "92107"
        string_val: "92115"
        string_val: "92036"
        string_val: "92562"
        string_val: "92107"
        string_val: "92119"
        string_val: "92025"
        string_val: "92004"
        string_val: "92037"
        string_val: "92111"
        string_val: "92019"
        string_val: "91913"
        string_val: "92115"
        string_val: "92037"
        string_val: "92101"
        string_val: "92117"
        string_val: "92054"
        string_val: "92105"
        string_val: "92067"
        string_val: "92130"
        string_val: "92004"
        string_val: "92025"
        string_val: "91910"
        string_val: "92102"
        string_val: "92123"
        string_val: "92114"
        string_val: "92026"
        string_val: "92101"
        string_val: "92101"
        string_val: "92075"
        string_val: "92064"
        string_val: "92011"
        string_val: "92007"
        string_val: "92115"
        string_val: "92056"
        string_val: "92109"
        string_val: "92101"
        string_val: "92108"
        string_val: "92014"
        string_val: "92025"
        string_val: "92105"
        string_val: "92065"
        string_val: "92115"
        string_val: "91911"
        string_val: "92139"
        string_val: "92083"
        string_val: "91910"
        string_val: "92103"
        string_val: "91977"
        string_val: "92127"
        string_val: "92109"
        string_val: "92129"
        string_val: "92004"
        string_val: "92081"
        string_val: "91977"
        string_val: "92057"
        string_val: "91902"
        string_val: "92009"
        string_val: "92024"
        string_val: "91913"
        string_val: "92004"
        string_val: "92122"
        string_val: "92025"
        string_val: "92058"
        string_val: "92107"
        string_val: "92067"
        string_val: "91906"
        string_val: "92116"
        string_val: "92083"
        string_val: "91941"
        string_val: "92107"
        string_val: "92128"
        string_val: "92106"
        string_val: "92154"
        string_val: "92020"
        string_val: "92103"
        string_val: "92064"
        string_val: "92075"
        string_val: "92082"
        string_val: "92082"
        string_val: "92113"
        string_val: "91977"
        string_val: "92026"
        string_val: "91932"
        string_val: "92025"
        string_val: "92120"
        string_val: "92078"
        string_val: "92019"
        string_val: "91902"
        string_val: "92106"
        string_val: "92101"
        string_val: "92562"
        string_val: "92562"
        string_val: "92104"
        string_val: "92024"
        string_val: "92117"
        string_val: "91945"
        string_val: "91901"
        string_val: "92107"
        string_val: "92122"
        string_val: "92029"
        string_val: "92129"
        string_val: "92122"
        string_val: "92126"
        string_val: "91902"
        string_val: "92040"
        string_val: "92101"
        string_val: "92028"
        string_val: "91950"
        string_val: "91913"
        string_val: "92108"
        string_val: "92110"
        string_val: "91913"
        string_val: "92101"
        string_val: "92106"
        string_val: "92040"
        string_val: "92086"
        string_val: "92019"
        string_val: "92010"
        string_val: "92025"
        string_val: "92004"
        string_val: "92021"
        string_val: "92106"
        string_val: "91977"
        string_val: "92065"
        string_val: "92064"
        string_val: "92106"
        string_val: "92562"
        string_val: "92078"
        string_val: "92024"
        string_val: "92057"
        string_val: "92120"
        string_val: "92083"
        string_val: "92103"
        string_val: "92119"
        string_val: "91910"
        string_val: "92101"
        string_val: "92037"
        string_val: "91935"
        string_val: "92111"
        string_val: "92011"
        string_val: "92106"
        string_val: "92004"
        string_val: "92173"
        string_val: "92019"
        string_val: "92037"
        string_val: "92101"
        string_val: "92026"
        string_val: "92562"
        string_val: "92101"
        string_val: "92029"
        string_val: "91942"
        string_val: "92009"
        string_val: "92114"
        string_val: "91911"
        string_val: "91941"
        string_val: "92037"
        string_val: "92562"
        string_val: "92116"
        string_val: "92054"
        string_val: "92010"
        string_val: "92003"
        string_val: "92064"
        string_val: "91977"
        string_val: "92116"
        string_val: "92109"
        string_val: "92065"
        string_val: "92025"
        string_val: "92064"
        string_val: "92106"
        string_val: "92054"
        string_val: "92011"
        string_val: "92037"
        string_val: "92071"
        string_val: "92105"
        string_val: "91977"
        string_val: "92124"
        string_val: "92101"
        string_val: "92057"
        string_val: "91914"
        string_val: "91978"
        string_val: "92101"
        string_val: "92056"
        string_val: "91910"
        string_val: "92122"
        string_val: "92057"
        string_val: "92592"
        string_val: "92101"
        string_val: "92029"
        string_val: "92025"
        string_val: "91906"
        string_val: "92025"
        string_val: "91977"
        string_val: "92113"
        string_val: "92117"
        string_val: "92117"
        string_val: "91932"
        string_val: "92026"
        string_val: "92067"
        string_val: "92064"
        string_val: "92173"
        string_val: "92562"
        string_val: "92010"
        string_val: "92024"
        string_val: "92037"
        string_val: "92126"
        string_val: "91905"
        string_val: "92123"
        string_val: "92127"
        string_val: "92562"
        string_val: "92109"
        string_val: "92084"
        string_val: "92067"
        string_val: "92082"
        string_val: "92106"
        string_val: "91901"
        string_val: "92025"
        string_val: "92003"
        string_val: "92109"
        string_val: "92562"
        string_val: "92071"
        string_val: "92115"
        string_val: "92037"
        string_val: "91978"
        string_val: "92025"
        string_val: "91977"
        string_val: "92562"
        string_val: "92064"
        string_val: "91932"
        string_val: "92037"
        string_val: "92078"
        string_val: "92069"
        string_val: "92117"
        string_val: "92130"
        string_val: "92084"
        string_val: "91978"
        string_val: "92115"
        string_val: "92025"
        string_val: "92029"
        string_val: "92007"
        string_val: "92118"
        string_val: "91911"
        string_val: "92065"
        string_val: "92108"
        string_val: "92040"
        string_val: "92117"
        string_val: "92122"
        string_val: "92078"
        string_val: "91935"
        string_val: "92114"
        string_val: "92130"
        string_val: "91913"
        string_val: "92592"
        string_val: "92004"
        string_val: "92081"
        string_val: "92113"
        string_val: "92103"
        string_val: "92075"
        string_val: "92057"
        string_val: "92120"
        string_val: "92109"
        string_val: "92102"
        string_val: "92040"
        string_val: "92075"
        string_val: "92066"
        string_val: "92128"
        string_val: "92110"
        string_val: "91978"
        string_val: "91945"
        string_val: "91906"
        string_val: "92595"
        string_val: "92057"
        string_val: "92105"
        string_val: "92104"
        string_val: "92562"
        string_val: "91901"
        string_val: "91913"
        string_val: "91905"
        string_val: "92040"
        string_val: "92027"
        string_val: "92021"
        string_val: "92117"
        string_val: "92116"
        string_val: "92119"
        string_val: "91914"
        string_val: "92131"
        string_val: "92106"
        string_val: "92117"
        string_val: "92021"
        string_val: "92562"
        string_val: "92064"
        string_val: "92101"
        string_val: "92065"
        string_val: "91977"
        string_val: "92014"
        string_val: "91977"
        string_val: "92071"
        string_val: "92127"
        string_val: "92116"
        string_val: "92004"
        string_val: "91932"
        string_val: "92562"
        string_val: "92040"
        string_val: "92029"
        string_val: "91950"
        string_val: "92029"
        string_val: "92105"
        string_val: "92101"
        string_val: "92107"
        string_val: "92026"
        string_val: "92109"
        string_val: "91962"
        string_val: "92083"
        string_val: "92025"
        string_val: "92057"
        string_val: "91977"
        string_val: "92128"
        string_val: "92040"
        string_val: "92106"
        string_val: "91950"
        string_val: "92127"
        string_val: "92116"
        string_val: "92105"
        string_val: "92562"
        string_val: "91977"
        string_val: "91911"
        string_val: "92124"
        string_val: "92019"
        string_val: "92014"
        string_val: "92056"
        string_val: "92129"
        string_val: "92025"
        string_val: "91977"
        string_val: "91911"
        string_val: "91941"
        string_val: "92120"
        string_val: "92082"
        string_val: "92116"
        string_val: "91914"
        string_val: "92064"
        string_val: "92127"
        string_val: "92010"
        string_val: "92025"
        string_val: "92009"
        string_val: "92040"
        string_val: "92109"
        string_val: "92114"
        string_val: "92117"
        string_val: "92054"
        string_val: "92101"
        string_val: "92040"
        string_val: "92028"
        string_val: "92057"
        string_val: "92067"
        string_val: "92020"
        string_val: "92082"
        string_val: "91941"
        string_val: "92128"
        string_val: "92026"
        string_val: "92108"
        string_val: "91901"
        string_val: "92058"
        string_val: "92028"
        string_val: "92114"
        string_val: "92025"
        string_val: "92009"
        string_val: "92081"
        string_val: "91914"
        string_val: "92107"
        string_val: "92103"
        string_val: "92091"
        string_val: "92154"
        string_val: "92071"
        string_val: "92081"
        string_val: "92119"
        string_val: "92103"
        string_val: "92009"
        string_val: "91911"
        string_val: "92071"
        string_val: "92054"
        string_val: "92057"
        string_val: "92061"
        string_val: "92109"
        string_val: "92122"
        string_val: "92110"
        string_val: "92103"
        string_val: "92111"
        string_val: "92154"
        string_val: "92109"
        string_val: "92027"
        string_val: "92113"
        string_val: "91935"
        string_val: "92083"
        string_val: "92117"
        string_val: "92009"
        string_val: "92057"
        string_val: "92129"
        string_val: "92129"
        string_val: "91915"
        string_val: "92066"
        string_val: "92081"
        string_val: "92105"
        string_val: "92054"
        string_val: "92020"
        string_val: "92057"
        string_val: "91935"
        string_val: "92123"
        string_val: "91901"
        string_val: "92173"
        string_val: "91945"
        string_val: "91977"
        string_val: "92057"
        string_val: "92058"
        string_val: "92071"
        string_val: "92019"
        string_val: "92083"
        string_val: "92124"
        string_val: "92103"
        string_val: "92040"
        string_val: "92037"
        string_val: "91941"
        string_val: "92117"
        string_val: "92064"
        string_val: "92057"
        string_val: "92004"
        string_val: "92084"
        string_val: "92082"
        string_val: "92057"
        string_val: "92037"
        string_val: "92004"
        string_val: "91942"
        string_val: "91902"
        string_val: "92007"
        string_val: "92108"
        string_val: "92064"
        string_val: "92592"
        string_val: "92075"
        string_val: "92084"
        string_val: "92057"
        string_val: "92127"
        string_val: "92116"
        string_val: "91911"
        string_val: "92083"
        string_val: "92075"
        string_val: "92115"
        string_val: "92025"
        string_val: "92104"
        string_val: "92128"
        string_val: "92019"
        string_val: "92117"
        string_val: "91913"
        string_val: "92071"
        string_val: "92024"
        string_val: "91977"
        string_val: "92122"
        string_val: "92057"
        string_val: "92107"
        string_val: "92056"
        string_val: "92027"
        string_val: "92078"
        string_val: "92082"
        string_val: "91941"
        string_val: "92026"
        string_val: "91942"
        string_val: "92126"
        string_val: "92108"
        string_val: "92020"
        string_val: "92014"
        string_val: "92071"
        string_val: "91977"
        string_val: "92029"
        string_val: "92139"
        string_val: "91901"
        string_val: "92120"
        string_val: "92119"
        string_val: "92114"
        string_val: "92067"
        string_val: "92026"
        string_val: "92115"
        string_val: "92110"
        string_val: "92021"
        string_val: "92020"
        string_val: "92127"
        string_val: "92107"
        string_val: "92060"
        string_val: "92109"
        string_val: "91913"
        string_val: "92562"
        string_val: "92127"
        string_val: "92078"
        string_val: "92562"
        string_val: "92117"
        string_val: "92067"
        string_val: "92025"
        string_val: "92113"
        string_val: "92154"
        string_val: "92010"
        string_val: "91941"
        string_val: "92004"
        string_val: "92101"
        string_val: "92117"
        string_val: "91906"
        string_val: "92008"
        string_val: "92081"
        string_val: "92067"
        string_val: "92116"
        string_val: "92078"
        string_val: "91935"
        string_val: "92083"
        string_val: "92102"
        string_val: "92124"
        string_val: "92024"
        string_val: "91913"
        string_val: "92107"
        string_val: "92028"
        string_val: "92115"
        string_val: "91980"
        string_val: "92154"
        string_val: "92029"
        string_val: "92037"
        string_val: "92054"
        string_val: "92024"
        string_val: "91977"
        string_val: "92054"
        string_val: "92101"
        string_val: "92116"
        string_val: "92021"
        string_val: "91941"
        string_val: "92056"
        string_val: "92028"
        string_val: "92118"
        string_val: "92065"
        string_val: "92014"
        string_val: "92065"
        string_val: "91916"
        string_val: "92107"
        string_val: "92025"
        string_val: "91941"
        string_val: "92111"
        string_val: "92027"
        string_val: "92154"
        string_val: "92021"
        string_val: "92054"
        string_val: "91934"
        string_val: "92115"
        string_val: "91962"
        string_val: "92010"
        string_val: "92124"
        string_val: "91910"
        string_val: "91977"
        string_val: "92054"
        string_val: "92127"
        string_val: "92057"
        string_val: "92127"
        string_val: "92069"
        string_val: "92154"
        string_val: "92104"
        string_val: "91978"
        string_val: "92008"
        string_val: "92065"
        string_val: "92054"
        string_val: "92004"
        string_val: "92029"
        string_val: "92037"
        string_val: "92118"
        string_val: "92057"
        string_val: "91978"
        string_val: "91915"
        string_val: "92029"
        string_val: "92120"
        string_val: "91932"
        string_val: "92109"
        string_val: "92111"
        string_val: "92103"
        string_val: "92116"
        string_val: "92127"
        string_val: "92082"
        string_val: "92056"
        string_val: "92019"
        string_val: "92109"
        string_val: "92120"
        string_val: "92054"
        string_val: "92054"
        string_val: "92029"
        string_val: "91910"
        string_val: "92101"
        string_val: "92019"
        string_val: "92102"
        string_val: "92071"
        string_val: "92025"
        string_val: "92102"
        string_val: "92107"
        string_val: "91910"
        string_val: "92122"
        string_val: "92562"
        string_val: "92067"
        string_val: "92124"
        string_val: "92056"
        string_val: "92123"
        string_val: "92056"
        string_val: "92020"
        string_val: "92154"
        string_val: "92101"
        string_val: "92037"
        string_val: "92037"
        string_val: "92119"
        string_val: "92126"
        string_val: "92003"
        string_val: "92086"
        string_val: "92036"
        string_val: "92119"
        string_val: "92037"
        string_val: "92025"
        string_val: "91901"
        string_val: "92111"
        string_val: "91911"
        string_val: "92154"
        string_val: "92103"
        string_val: "92003"
        string_val: "92103"
        string_val: "92101"
        string_val: "92562"
        string_val: "92057"
        string_val: "92109"
        string_val: "92028"
        string_val: "92118"
        string_val: "92115"
        string_val: "91901"
        string_val: "92130"
        string_val: "92124"
        string_val: "92139"
        string_val: "92054"
        string_val: "92119"
        string_val: "92061"
        string_val: "92562"
        string_val: "92116"
        string_val: "92114"
        string_val: "92109"
        string_val: "92109"
        string_val: "92084"
        string_val: "91932"
        string_val: "91901"
        string_val: "91911"
        string_val: "92111"
        string_val: "92019"
        string_val: "92173"
        string_val: "91906"
        string_val: "92028"
        string_val: "91913"
        string_val: "91941"
        string_val: "92064"
        string_val: "92117"
        string_val: "91910"
        string_val: "92026"
        string_val: "91913"
        string_val: "92086"
        string_val: "92562"
        string_val: "92021"
        string_val: "92065"
        string_val: "92037"
        string_val: "91910"
        string_val: "92037"
        string_val: "92120"
        string_val: "92117"
        string_val: "92592"
        string_val: "92082"
        string_val: "92059"
        string_val: "92040"
        string_val: "92037"
        string_val: "92127"
        string_val: "92040"
        string_val: "92054"
        string_val: "92130"
        string_val: "92064"
        string_val: "92067"
        string_val: "92081"
        string_val: "92029"
        string_val: "92037"
        string_val: "92025"
        string_val: "91915"
        string_val: "92130"
        string_val: "91945"
        string_val: "92105"
        string_val: "92057"
        string_val: "92116"
        string_val: "92057"
        string_val: "92128"
        string_val: "92026"
        string_val: "91945"
        string_val: "92084"
        string_val: "91977"
        string_val: "92070"
        string_val: "92106"
        string_val: "92078"
        string_val: "92064"
        string_val: "92127"
        string_val: "91911"
        string_val: "92103"
        string_val: "92021"
        string_val: "92120"
        string_val: "92114"
        string_val: "92562"
        string_val: "92004"
        string_val: "92562"
        string_val: "92064"
        string_val: "91945"
        string_val: "92071"
        string_val: "92106"
        string_val: "92037"
        string_val: "91913"
        string_val: "92154"
        string_val: "92021"
        string_val: "92562"
        string_val: "92113"
        string_val: "92105"
        string_val: "91902"
        string_val: "92109"
        string_val: "91910"
        string_val: "92116"
        string_val: "92139"
        string_val: "92020"
        string_val: "92562"
        string_val: "92061"
        string_val: "92026"
        string_val: "91911"
        string_val: "92114"
        string_val: "92083"
        string_val: "91906"
        string_val: "92008"
        string_val: "92130"
        string_val: "92029"
        string_val: "92037"
        string_val: "92025"
        string_val: "92004"
        string_val: "92019"
        string_val: "91942"
        string_val: "92014"
        string_val: "91942"
        string_val: "92117"
        string_val: "91905"
        string_val: "92028"
        string_val: "92114"
        string_val: "91913"
        string_val: "92103"
        string_val: "92014"
        string_val: "92119"
        string_val: "92036"
        string_val: "92106"
        string_val: "92128"
        string_val: "92110"
        string_val: "92118"
        string_val: "92037"
        string_val: "92101"
        string_val: "92019"
        string_val: "92122"
        string_val: "92036"
        string_val: "92119"
        string_val: "92127"
        string_val: "92004"
        string_val: "91935"
        string_val: "92024"
        string_val: "92056"
        string_val: "91945"
        string_val: "92082"
        string_val: "92067"
        string_val: "92066"
        string_val: "92014"
        string_val: "92067"
        string_val: "91941"
        string_val: "92026"
        string_val: "92028"
        string_val: "91977"
        string_val: "92101"
        string_val: "92104"
        string_val: "92120"
        string_val: "92128"
        string_val: "91978"
        string_val: "92086"
        string_val: "92019"
        string_val: "92108"
        string_val: "92024"
        string_val: "92562"
        string_val: "92065"
        string_val: "92056"
        string_val: "92057"
        string_val: "91977"
        string_val: "92020"
        string_val: "92127"
        string_val: "91935"
        string_val: "91942"
        string_val: "92067"
        string_val: "92120"
        string_val: "92025"
        string_val: "92128"
        string_val: "92101"
        string_val: "92106"
        string_val: "92102"
        string_val: "91910"
        string_val: "92040"
        string_val: "91901"
        string_val: "92024"
        string_val: "92019"
        string_val: "92109"
        string_val: "92110"
        string_val: "91942"
        string_val: "92110"
        string_val: "92154"
        string_val: "92019"
        string_val: "92109"
        string_val: "92109"
        string_val: "92007"
        string_val: "92064"
        string_val: "92040"
        string_val: "92104"
        string_val: "92011"
        string_val: "92036"
        string_val: "91913"
        string_val: "92120"
        string_val: "92127"
        string_val: "92067"
        string_val: "92037"
        string_val: "92054"
        string_val: "91901"
        string_val: "92562"
        string_val: "92026"
        string_val: "92139"
        string_val: "92110"
        string_val: "92054"
        string_val: "92114"
        string_val: "92562"
        string_val: "92075"
        string_val: "91945"
        string_val: "92113"
        string_val: "92101"
        string_val: "92028"
        string_val: "92101"
        string_val: "92004"
        string_val: "92057"
        string_val: "92122"
        string_val: "92109"
        string_val: "91913"
        string_val: "92026"
        string_val: "91950"
        string_val: "92086"
        string_val: "92026"
        string_val: "92025"
        string_val: "91950"
        string_val: "92116"
        string_val: "92105"
        string_val: "92037"
        string_val: "92004"
        string_val: "92173"
        string_val: "92109"
        string_val: "92592"
        string_val: "92008"
        string_val: "92110"
        string_val: "92071"
        string_val: "92101"
        string_val: "92131"
        string_val: "92008"
        string_val: "92130"
        string_val: "92091"
        string_val: "92037"
        string_val: "92019"
        string_val: "92120"
        string_val: "92037"
        string_val: "92119"
        string_val: "92019"
        string_val: "92037"
        string_val: "92101"
        string_val: "92109"
        string_val: "91911"
        string_val: "92004"
        string_val: "92010"
        string_val: "92082"
        string_val: "92066"
        string_val: "92037"
        string_val: "92562"
        string_val: "92086"
        string_val: "92091"
        string_val: "92116"
        string_val: "92027"
        string_val: "92019"
        string_val: "92562"
        string_val: "92078"
        string_val: "92054"
        string_val: "92113"
        string_val: "92562"
        string_val: "92124"
        string_val: "92128"
        string_val: "92119"
        string_val: "91910"
        string_val: "92102"
        string_val: "92025"
        string_val: "91978"
        string_val: "92037"
        string_val: "92120"
        string_val: "92562"
        string_val: "92037"
        string_val: "92113"
        string_val: "92173"
        string_val: "92067"
        string_val: "92021"
        string_val: "92127"
        string_val: "92057"
        string_val: "92008"
        string_val: "92109"
        string_val: "92078"
        string_val: "92101"
        string_val: "91911"
        string_val: "91902"
        string_val: "92128"
        string_val: "91932"
        string_val: "91977"
        string_val: "92036"
        string_val: "92118"
        string_val: "92037"
        string_val: "92120"
        string_val: "92014"
        string_val: "92009"
        string_val: "92131"
        string_val: "92110"
        string_val: "92036"
        string_val: "92004"
        string_val: "92025"
        string_val: "92562"
        string_val: "92004"
        string_val: "92065"
        string_val: "92011"
        string_val: "92019"
        string_val: "92105"
        string_val: "92028"
        string_val: "92118"
        string_val: "92120"
        string_val: "91913"
        string_val: "92120"
        string_val: "92057"
        string_val: "92106"
        string_val: "91950"
        string_val: "92106"
        string_val: "92029"
        string_val: "92086"
        string_val: "92064"
        string_val: "91915"
        string_val: "92040"
        string_val: "91901"
        string_val: "92126"
        string_val: "92120"
        string_val: "92075"
        string_val: "92037"
        string_val: "92101"
        string_val: "92103"
        string_val: "92003"
        string_val: "92101"
        string_val: "92120"
        string_val: "92117"
        string_val: "92123"
        string_val: "92101"
        string_val: "92104"
        string_val: "92009"
        string_val: "92027"
        string_val: "92029"
        string_val: "92058"
        string_val: "92127"
        string_val: "92118"
        string_val: "92071"
        string_val: "92064"
        string_val: "92027"
        string_val: "92040"
        string_val: "91977"
        string_val: "92082"
        string_val: "92083"
        string_val: "92020"
        string_val: "91913"
        string_val: "92106"
        string_val: "92109"
        string_val: "92107"
        string_val: "91913"
        string_val: "91913"
        string_val: "92105"
        string_val: "92104"
        string_val: "92119"
        string_val: "92108"
        string_val: "92036"
        string_val: "92078"
        string_val: "92021"
        string_val: "92127"
        string_val: "92123"
        string_val: "92014"
        string_val: "92111"
        string_val: "92128"
        string_val: "92111"
        string_val: "92117"
        string_val: "91942"
        string_val: "92026"
        string_val: "92105"
        string_val: "92037"
        string_val: "92118"
        string_val: "91978"
        string_val: "91941"
        string_val: "92025"
        string_val: "92028"
        string_val: "91911"
        string_val: "92004"
        string_val: "92119"
        string_val: "92129"
        string_val: "91906"
        string_val: "92128"
        string_val: "92029"
        string_val: "92129"
        string_val: "92562"
        string_val: "92118"
        string_val: "92057"
        string_val: "92081"
        string_val: "92101"
        string_val: "92082"
        string_val: "92107"
        string_val: "92103"
        string_val: "92057"
        string_val: "92075"
        string_val: "92107"
        string_val: "92011"
        string_val: "92007"
        string_val: "92102"
        string_val: "92129"
        string_val: "92119"
        string_val: "92111"
        string_val: "92026"
        string_val: "92009"
        string_val: "92103"
        string_val: "92109"
        string_val: "92054"
        string_val: "92004"
        string_val: "91945"
        string_val: "91941"
        string_val: "92109"
        string_val: "92131"
        string_val: "92061"
        string_val: "91977"
        string_val: "92058"
        string_val: "92027"
        string_val: "92117"
        string_val: "91910"
        string_val: "92592"
        string_val: "92115"
        string_val: "92064"
        string_val: "91910"
        string_val: "92004"
        string_val: "92101"
        string_val: "92104"
        string_val: "92116"
        string_val: "92113"
        string_val: "92084"
        string_val: "92056"
        string_val: "92120"
        string_val: "92014"
        string_val: "92081"
        string_val: "92057"
        string_val: "92064"
        string_val: "92025"
        string_val: "91914"
        string_val: "92078"
        string_val: "92037"
        string_val: "92109"
        string_val: "92037"
        string_val: "91942"
        string_val: "92026"
        string_val: "91931"
        string_val: "91950"
        string_val: "92020"
        string_val: "92108"
        string_val: "91977"
        string_val: "92071"
        string_val: "92130"
        string_val: "92102"
        string_val: "91902"
        string_val: "92003"
        string_val: "92122"
        string_val: "92116"
        string_val: "91977"
        string_val: "92562"
        string_val: "91915"
        string_val: "92108"
        string_val: "92004"
        string_val: "92114"
        string_val: "92117"
        string_val: "92101"
        string_val: "91945"
        string_val: "92037"
        string_val: "92124"
        string_val: "92127"
        string_val: "92117"
        string_val: "92118"
        string_val: "92116"
        string_val: "92106"
        string_val: "92101"
        string_val: "91915"
        string_val: "92037"
        string_val: "92070"
        string_val: "92078"
        string_val: "92008"
        string_val: "92562"
        string_val: "92111"
        string_val: "92127"
        string_val: "91906"
        string_val: "92154"
        string_val: "92110"
        string_val: "92103"
        string_val: "91941"
        string_val: "92019"
        string_val: "91901"
        string_val: "92101"
        string_val: "91978"
        string_val: "92014"
        string_val: "92562"
        string_val: "92127"
        string_val: "91911"
        string_val: "91977"
        string_val: "91950"
        string_val: "92562"
        string_val: "91977"
        string_val: "92057"
        string_val: "92021"
        string_val: "92109"
        string_val: "92127"
        string_val: "91911"
        string_val: "92129"
        string_val: "92054"
        string_val: "92128"
        string_val: "92025"
        string_val: "92057"
        string_val: "92057"
        string_val: "92025"
        string_val: "92019"
        string_val: "92084"
        string_val: "91913"
        string_val: "91977"
        string_val: "92037"
        string_val: "92036"
        string_val: "92106"
        string_val: "91906"
        string_val: "91910"
        string_val: "92102"
        string_val: "92592"
        string_val: "91914"
        string_val: "92009"
        string_val: "91977"
        string_val: "92054"
        string_val: "92011"
        string_val: "92086"
        string_val: "92057"
        string_val: "91901"
        string_val: "91911"
        string_val: "92101"
        string_val: "91941"
        string_val: "92115"
        string_val: "92054"
        string_val: "91977"
        string_val: "92064"
        string_val: "92115"
        string_val: "92116"
        string_val: "92113"
        string_val: "92106"
        string_val: "92061"
        string_val: "92057"
        string_val: "92109"
        string_val: "92082"
        string_val: "92592"
        string_val: "91941"
        string_val: "91913"
        string_val: "91911"
        string_val: "92122"
        string_val: "92004"
        string_val: "92104"
        string_val: "92037"
        string_val: "92037"
        string_val: "92110"
        string_val: "92107"
        string_val: "92067"
        string_val: "92057"
        string_val: "92069"
        string_val: "91977"
        string_val: "91902"
        string_val: "92109"
        string_val: "92104"
        string_val: "91935"
        string_val: "92120"
        string_val: "92562"
        string_val: "92113"
        string_val: "92026"
        string_val: "92057"
        string_val: "91977"
        string_val: "92562"
        string_val: "91932"
        string_val: "92021"
        string_val: "92126"
        string_val: "92122"
        string_val: "91977"
        string_val: "92026"
        string_val: "91932"
        string_val: "92128"
        string_val: "92040"
        string_val: "92078"
        string_val: "92562"
        string_val: "92026"
        string_val: "92154"
        string_val: "92019"
        string_val: "92004"
        string_val: "92083"
        string_val: "92020"
        string_val: "92117"
        string_val: "92108"
        string_val: "92082"
        string_val: "92057"
        string_val: "92562"
        string_val: "92126"
        string_val: "92004"
        string_val: "92102"
        string_val: "91942"
        string_val: "92154"
        string_val: "92101"
        string_val: "92122"
        string_val: "92106"
        string_val: "92091"
        string_val: "92037"
        string_val: "91941"
        string_val: "92119"
        string_val: "92024"
        string_val: "92119"
        string_val: "92118"
        string_val: "92562"
        string_val: "92037"
        string_val: "92562"
        string_val: "92007"
        string_val: "92105"
        string_val: "91977"
        string_val: "91913"
        string_val: "92128"
        string_val: "92008"
        string_val: "92111"
        string_val: "91902"
        string_val: "92106"
        string_val: "92057"
        string_val: "92127"
        string_val: "92109"
        string_val: "92110"
        string_val: "92007"
        string_val: "92061"
        string_val: "92116"
        string_val: "92120"
        string_val: "92562"
        string_val: "91963"
        string_val: "92115"
        string_val: "92105"
        string_val: "92101"
        string_val: "92081"
        string_val: "92056"
        string_val: "91977"
        string_val: "92075"
        string_val: "92040"
        string_val: "92025"
        string_val: "91917"
        string_val: "92105"
        string_val: "92106"
        string_val: "92122"
        string_val: "92067"
        string_val: "92111"
        string_val: "92064"
        string_val: "92562"
        string_val: "92054"
        string_val: "92054"
        string_val: "92117"
        string_val: "92004"
        string_val: "92117"
        string_val: "92109"
        string_val: "92058"
        string_val: "92127"
        string_val: "92029"
        string_val: "92058"
        string_val: "92128"
        string_val: "92592"
        string_val: "92114"
        string_val: "92037"
        string_val: "91911"
        string_val: "92110"
        string_val: "92105"
        string_val: "92101"
        string_val: "92020"
        string_val: "91934"
        string_val: "92122"
        string_val: "92082"
        string_val: "92078"
        string_val: "92154"
        string_val: "91977"
        string_val: "92124"
        string_val: "92083"
        string_val: "92025"
        string_val: "92057"
        string_val: "92019"
        string_val: "92127"
        string_val: "92106"
        string_val: "92069"
        string_val: "92139"
        string_val: "92101"
        string_val: "92101"
        string_val: "92173"
        string_val: "92064"
        string_val: "92117"
        string_val: "92029"
        string_val: "91931"
        string_val: "92562"
        string_val: "92056"
        string_val: "92081"
        string_val: "92003"
        string_val: "92019"
        string_val: "92021"
        string_val: "92110"
        string_val: "92081"
        string_val: "92008"
        string_val: "92562"
        string_val: "92004"
        string_val: "92106"
        string_val: "91914"
        string_val: "92029"
        string_val: "92057"
        string_val: "92054"
        string_val: "91950"
        string_val: "92115"
        string_val: "91945"
        string_val: "92058"
        string_val: "92103"
        string_val: "91913"
        string_val: "92124"
        string_val: "92116"
        string_val: "92040"
        string_val: "92078"
        string_val: "92056"
        string_val: "92106"
        string_val: "92057"
        string_val: "92109"
        string_val: "92008"
        string_val: "92078"
        string_val: "91915"
        string_val: "92036"
        string_val: "92107"
        string_val: "92026"
        string_val: "92004"
        string_val: "92127"
        string_val: "92026"
        string_val: "92064"
        string_val: "92019"
        string_val: "92114"
        string_val: "92040"
        string_val: "92117"
        string_val: "92025"
        string_val: "92084"
        string_val: "92061"
        string_val: "92122"
        string_val: "92028"
        string_val: "92029"
        string_val: "92021"
        string_val: "92128"
        string_val: "92054"
        string_val: "92109"
        string_val: "92037"
        string_val: "92120"
        string_val: "92058"
        string_val: "92024"
        string_val: "92154"
        string_val: "92083"
        string_val: "92003"
        string_val: "92128"
        string_val: "92069"
        string_val: "92057"
        string_val: "92037"
        string_val: "92029"
        string_val: "91902"
        string_val: "91945"
        string_val: "91942"
        string_val: "92118"
        string_val: "92078"
        string_val: "92127"
        string_val: "92026"
        string_val: "92562"
        string_val: "92025"
        string_val: "92110"
        string_val: "91942"
        string_val: "92106"
        string_val: "92025"
        string_val: "91977"
        string_val: "91978"
        string_val: "92101"
        string_val: "92115"
        string_val: "92008"
        string_val: "92126"
        string_val: "92120"
        string_val: "92067"
        string_val: "91978"
        string_val: "92064"
        string_val: "92126"
        string_val: "92103"
        string_val: "92592"
        string_val: "92154"
        string_val: "92105"
        string_val: "92124"
        string_val: "91935"
        string_val: "92056"
        string_val: "92065"
        string_val: "91963"
        string_val: "92101"
        string_val: "92081"
        string_val: "91941"
        string_val: "92101"
        string_val: "92025"
        string_val: "92154"
        string_val: "92083"
        string_val: "92054"
        string_val: "92106"
        string_val: "92124"
        string_val: "92004"
        string_val: "91911"
        string_val: "92037"
        string_val: "92116"
        string_val: "92562"
        string_val: "92071"
        string_val: "92109"
        string_val: "92103"
        string_val: "92106"
        string_val: "92078"
        string_val: "92120"
        string_val: "92117"
        string_val: "92054"
        string_val: "91911"
        string_val: "92065"
        string_val: "91935"
        string_val: "91910"
        string_val: "92120"
        string_val: "92037"
        string_val: "92103"
        string_val: "92123"
        string_val: "92014"
        string_val: "92091"
        string_val: "92007"
        string_val: "91977"
        string_val: "92067"
        string_val: "91913"
        string_val: "92026"
        string_val: "91941"
        string_val: "92107"
        string_val: "91914"
        string_val: "92101"
        string_val: "92106"
        string_val: "92014"
        string_val: "92120"
        string_val: "92127"
        string_val: "91911"
        string_val: "92019"
        string_val: "92011"
        string_val: "92101"
        string_val: "92019"
        string_val: "92118"
        string_val: "92082"
        string_val: "92019"
        string_val: "92040"
        string_val: "92037"
        string_val: "92103"
        string_val: "92126"
        string_val: "92010"
        string_val: "92104"
        string_val: "92069"
        string_val: "91913"
        string_val: "92107"
        string_val: "92027"
        string_val: "92003"
        string_val: "92129"
        string_val: "92037"
        string_val: "91935"
        string_val: "91962"
        string_val: "92024"
      }
    }
  }
}
node {
  name: "SparseTensor/shape"
  op: "Const"
  attr {
    key: "_output_shapes"
    value {
      list {
        shape {
          dim {
            size: 2
          }
        }
      }
    }
  }
  attr {
    key: "dtype"
    value {
      type: DT_INT64
    }
  }
  attr {
    key: "value"
    value {
      tensor {
        dtype: DT_INT64
        tensor_shape {
          dim {
            size: 2
          }
        }
        tensor_content: "\227\t\000\000\000\000\000\000\001\000\000\000\000\000\000\000"
      }
    }
  }
}
node {
  name: "SparseTensor_1/indices"
  op: "Const"
  attr {
    key: "_output_shapes"
    value {
      list {
        shape {
          dim {
            size: 2455
          }
          dim {
            size: 2
          }
        }
      }
    }
  }
  attr {
    key: "dtype"
    value {
      type: DT_INT64
    }
  }
  attr {
    key: "value"
    value {
      tensor {
        dtype: DT_INT64
        tensor_shape {
          dim {
            size: 2455
          }
          dim {
            size: 2
          }
        }
        tensor_content: "…"
      }
    }
  }
}
node {
  name: "SparseTensor_1/values"
  op: "Const"
  attr {
    key: "_output_shapes"
    value {
      list {
        shape {
          dim {
            size: 2455
          }
        }
      }
    }
  }
  attr {
    key: "dtype"
    value {
      type: DT_STRING
    }
  }
  attr {
    key: "value"
    value {
      tensor {
        dtype: DT_STRING
        tensor_shape {
          dim {
            size: 2455
          }
        }
        string_val: "Condo"
        string_val: "Single Family"
        string_val: "Condo"
        string_val: "Mobile / Manufactured"
        string_val: "Single Family"
        string_val: "Single Family"
        string_val: "Mobile / Manufactured"
        string_val: "Single Family"
        string_val: "Single Family"
        string_val: "Single Family"
        string_val: "Condo"
        string_val: "Single Family"
        string_val: "Townhouse"
        string_val: "Mobile / Manufactured"
        string_val: "Condo"
        string_val: "Single Family"
        string_val: "Condo"
        string_val: "Single Family"
        string_val: "Single Family"
        string_val: "Single Family"
        string_val: "Mobile / Manufactured"
        string_val: "Mobile / Manufactured"
        string_val: "Single Family"
        string_val: "Single Family"
        string_val: "Single Family"
        string_val: "Single Family"
        string_val: "Single Family"
        string_val: "Condo"
        string_val: "Single Family"
        string_val: "Single Family"
        string_val: "Single Family"
        string_val: "Single Family"
        string_val: "Single Family"
        string_val: "Single Family"
        string_val: "Mobile / Manufactured"
        string_val: "Single Family"
        string_val: "Single Family"
        string_val: "Single Family"
        string_val: "Condo"
        string_val: "Condo"
        string_val: "Condo"
        string_val: "Townhouse"
        string_val: "Single Family"
        string_val: "Townhouse"
        string_val: "Single Family"
        string_val: "Single Family"
        string_val: "Single Family"
        string_val: "Single Family"
        string_val: "Single Family"
        string_val: "Condo"
        string_val: "Single Family"
        string_val: "Single Family"
        string_val: "Single Family"
        string_val: "Condo"
        string_val: "Single Family"
        string_val: "Townhouse"
        string_val: "Single Family"
        string_val: "Multi Family"
        string_val: "Mobile / Manufactured"
        string_val: "Single Family"
        string_val: "Condo"
        string_val: "Single Family"
        string_val: "Single Family"
        string_val: "Condo"
        string_val: "Single Family"
        string_val: "Condo"
        string_val: "Single Family"
        string_val: "Mobile / Manufactured"
        string_val: "Single Family"
        string_val: "Single Family"
        string_val: "Condo"
        string_val: "Single Family"
        string_val: "Single Family"
        string_val: "Single Family"
        string_val: "Single Family"
        string_val: "Single Family"
        string_val: "Single Family"
        string_val: "Single Family"
        string_val: "Single Family"
        string_val: "Single Family"
        string_val: "Single Family"
        string_val: "Single Family"
        string_val: "Single Family"
        string_val: "Single Family"
        string_val: "Condo"
        string_val: "Single Family"
        string_val: "Single Family"
        string_val: "Single Family"
        string_val: "Condo"
        string_val: "Single Family"
        string_val: "Single Family"
        string_val: "Single Family"
        string_val: "Single Family"
        string_val: "Single Family"
        string_val: "Single Family"
        string_val: "Single Family"
        string_val: "Single Family"
        string_val: "Single Family"
        string_val: "Single Family"
        string_val: "Single Family"
        string_val: "Single Family"
        string_val: "Single Family"
        string_val: "Single Family"
        string_val: "Single Family"
        string_val: "Single Family"
        string_val: "Single Family"
        string_val: "Single Family"
        string_val: "Single Family"
        string_val: "Single Family"
        string_val: "Single Family"
        string_val: "Mobile / Manufactured"
        string_val: "Single Family"
        string_val: "Single Family"
        string_val: "Single Family"
        string_val: "Single Family"
        string_val: "Single Family"
        string_val: "Single Family"
        string_val: "Townhouse"
        string_val: "Single Family"
        string_val: "Single Family"
        string_val: "Single Family"
        string_val: "Single Family"
        string_val: "Single Family"
        string_val: "Single Family"
        string_val: "Single Family"
        string_val: "Condo"
        string_val: "Single Family"
        string_val: "Single Family"
        string_val: "Condo"
        string_val: "Townhouse"
        string_val: "Single Family"
        string_val: "Mobile / Manufactured"
        string_val: "Single Family"
        string_val: "Single Family"
        string_val: "Single Family"
        string_val: "Single Family"
        string_val: "Single Family"
        string_val: "Single Family"
        string_val: "Single Family"
        string_val: "Single Family"
        string_val: "Single Family"
        string_val: "Condo"
        string_val: "Single Family"
        string_val: "Single Family"
        string_val: "Single Family"
        string_val: "Single Family"
        string_val: "Single Family"
        string_val: "Single Family"
        string_val: "Single Family"
        string_val: "Townhouse"
        string_val: "Single Family"
        string_val: "Condo"
        string_val: "Condo"
        string_val: "Single Family"
        string_val: "Single Family"
        string_val: "Single Family"
        string_val: "Single Family"
        string_val: "Condo"
        string_val: "Single Family"
        string_val: "Single Family"
        string_val: "Single Family"
        string_val: "Single Family"
        string_val: "Single Family"
        string_val: "Single Family"
        string_val: "Townhouse"
        string_val: "Single Family"
        string_val: "Mobile / Manufactured"
        string_val: "Mobile / Manufactured"
        string_val: "Townhouse"
        string_val: "Single Family"
        string_val: "Single Family"
        string_val: "Single Family"
        string_val: "Single Family"
        string_val: "Townhouse"
        string_val: "Single Family"
        string_val: "Condo"
        string_val: "Condo"
        string_val: "Townhouse"
        string_val: "Single Family"
        string_val: "Single Family"
        string_val: "Single Family"
        string_val: "Single Family"
        string_val: "Single Family"
        string_val: "Condo"
        string_val: "Single Family"
        string_val: "Single Family"
        string_val: "Single Family"
        string_val: "Condo"
        string_val: "Condo"
        string_val: "Single Family"
        string_val: "Single Family"
        string_val: "Multi Family"
        string_val: "Single Family"
        string_val: "Condo"
        string_val: "Condo"
        string_val: "Mobile / Manufactured"
        string_val: "Single Family"
        string_val: "Single Family"
        string_val: "Condo"
        string_val: "Single Family"
        string_val: "Single Family"
        string_val: "Condo"
        string_val: "Single Family"
        string_val: "Single Family"
        string_val: "Single Family"
        string_val: "Single Family"
        string_val: "Single Family"
        string_val: "Single Family"
        string_val: "Condo"
        string_val: "Condo"
        string_val: "Single Family"
        string_val: "Single Family"
        string_val: "Single Family"
        string_val: "Single Family"
        string_val: "Single Family"
        string_val: "Single Family"
        string_val: "Single Family"
        string_val: "Single Family"
        string_val: "Single Family"
        string_val: "Single Family"
        string_val: "Single Family"
        string_val: "Single Family"
        string_val: "Single Family"
        string_val: "Single Family"
        string_val: "Single Family"
        string_val: "Single Family"
        string_val: "Single Family"
        string_val: "Single Family"
        string_val: "Multi Family"
        string_val: "Single Family"
        string_val: "Condo"
        string_val: "Single Family"
        string_val: "Single Family"
        string_val: "Single Family"
        string_val: "Single Family"
        string_val: "Single Family"
        string_val: "Townhouse"
        string_val: "Single Family"
        string_val: "Single Family"
        string_val: "Townhouse"
        string_val: "Single Family"
        string_val: "Single Family"
        string_val: "Single Family"
        string_val: "Single Family"
        string_val: "Single Family"
        string_val: "Single Family"
        string_val: "Condo"
        string_val: "Single Family"
        string_val: "Single Family"
        string_val: "Single Family"
        string_val: "Single Family"
        string_val: "Single Family"
        string_val: "Multi Family"
        string_val: "Single Family"
        string_val: "Mobile / Manufactured"
        string_val: "Single Family"
        string_val: "Single Family"
        string_val: "Mobile / Manufactured"
        string_val: "Single Family"
        string_val: "Single Family"
        string_val: "Condo"
        string_val: "Single Family"
        string_val: "Single Family"
        string_val: "Single Family"
        string_val: "Single Family"
        string_val: "Single Family"
        string_val: "Single Family"
        string_val: "Single Family"
        string_val: "Condo"
        string_val: "Single Family"
        string_val: "Single Family"
        string_val: "Single Family"
        string_val: "Single Family"
        string_val: "Single Family"
        string_val: "Single Family"
        string_val: "Single Family"
        string_val: "Single Family"
        string_val: "Single Family"
        string_val: "Condo"
        string_val: "Mobile / Manufactured"
        string_val: "Single Family"
        string_val: "Single Family"
        string_val: "Mobile / Manufactured"
        string_val: "Condo"
        string_val: "Single Family"
        string_val: "Single Family"
        string_val: "Condo"
        string_val: "Single Family"
        string_val: "Single Family"
        string_val: "Townhouse"
        string_val: "Single Family"
        string_val: "Single Family"
        string_val: "Condo"
        string_val: "Single Family"
        string_val: "Single Family"
        string_val: "Condo"
        string_val: "Single Family"
        string_val: "Single Family"
        string_val: "Single Family"
        string_val: "Condo"
        string_val: "Single Family"
        string_val: "Condo"
        string_val: "Single Family"
        string_val: "Single Family"
        string_val: "Townhouse"
        string_val: "Condo"
        string_val: "Single Family"
        string_val: "Single Family"
        string_val: "Single Family"
        string_val: "Single Family"
        string_val: "Condo"
        string_val: "Condo"
        string_val: "Condo"
        string_val: "Single Family"
        string_val: "Single Family"
        string_val: "Mobile / Manufactured"
        string_val: "Single Family"
        string_val: "Single Family"
        string_val: "Single Family"
        string_val: "Single Family"
        string_val: "Single Family"
        string_val: "Condo"
        string_val: "Single Family"
        string_val: "Single Family"
        string_val: "Single Family"
        string_val: "Condo"
        string_val: "Single Family"
        string_val: "Condo"
        string_val: "Single Family"
        string_val: "Condo"
        string_val: "Single Family"
        string_val: "Single Family"
        string_val: "Single Family"
        string_val: "Single Family"
        string_val: "Single Family"
        string_val: "Condo"
        string_val: "Single Family"
        string_val: "Single Family"
        string_val: "Single Family"
        string_val: "Single Family"
        string_val: "Single Family"
        string_val: "Condo"
        string_val: "Single Family"
        string_val: "Single Family"
        string_val: "Single Family"
        string_val: "Single Family"
        string_val: "Single Family"
        string_val: "Single Family"
        string_val: "Single Family"
        string_val: "Single Family"
        string_val: "Single Family"
        string_val: "Single Family"
        string_val: "Single Family"
        string_val: "Miscellaneous"
        string_val: "Condo"
        string_val: "Single Family"
        string_val: "Single Family"
        string_val: "Single Family"
        string_val: "Single Family"
        string_val: "Single Family"
        string_val: "Condo"
        string_val: "Townhouse"
        string_val: "Condo"
        string_val: "Single Family"
        string_val: "Single Family"
        string_val: "Single Family"
        string_val: "Single Family"
        string_val: "Single Family"
        string_val: "Single Family"
        string_val: "Single Family"
        string_val: "Condo"
        string_val: "Condo"
        string_val: "Condo"
        string_val: "Single Family"
        string_val: "Single Family"
        string_val: "Single Family"
        string_val: "Single Family"
        string_val: "Single Family"
        string_val: "Single Family"
        string_val: "Single Family"
        string_val: "Townhouse"
        string_val: "Single Family"
        string_val: "Single Family"
        string_val: "Condo"
        string_val: "Single Family"
        string_val: "Condo"
        string_val: "Single Family"
        string_val: "Single Family"
        string_val: "Single Family"
        string_val: "Condo"
        string_val: "Townhouse"
        string_val: "Single Family"
        string_val: "Condo"
        string_val: "Single Family"
        string_val: "Single Family"
        string_val: "Single Family"
        string_val: "Single Family"
        string_val: "Single Family"
        string_val: "Condo"
        string_val: "Condo"
        string_val: "Single Family"
        string_val: "Single Family"
        string_val: "Condo"
        string_val: "Single Family"
        string_val: "Condo"
        string_val: "Townhouse"
        string_val: "Single Family"
        string_val: "Condo"
        string_val: "Single Family"
        string_val: "Townhouse"
        string_val: "Single Family"
        string_val: "Condo"
        string_val: "Single Family"
        string_val: "Single Family"
        string_val: "Single Family"
        string_val: "Single Family"
        string_val: "Mobile / Manufactured"
        string_val: "Single Family"
        string_val: "Single Family"
        string_val: "Single Family"
        string_val: "Single Family"
        string_val: "Single Family"
        string_val: "Condo"
        string_val: "Single Family"
        string_val: "Single Family"
        string_val: "Condo"
        string_val: "Single Family"
        string_val: "Single Family"
        string_val: "Single Family"
        string_val: "Single Family"
        string_val: "Single Family"
        string_val: "Single Family"
        string_val: "Single Family"
        string_val: "Single Family"
        string_val: "Single Family"
        string_val: "Condo"
        string_val: "Single Family"
        string_val: "Single Family"
        string_val: "Single Family"
        string_val: "Single Family"
        string_val: "Condo"
        string_val: "Single Family"
        string_val: "Condo"
        string_val: "Single Family"
        string_val: "Single Family"
        string_val: "Single Family"
        string_val: "Single Family"
        string_val: "Single Family"
        string_val: "Single Family"
        string_val: "Single Family"
        string_val: "Mobile / Manufactured"
        string_val: "Single Family"
        string_val: "Single Family"
        string_val: "Single Family"
        string_val: "Single Family"
        string_val: "Single Family"
        string_val: "Townhouse"
        string_val: "Miscellaneous"
        string_val: "Single Family"
        string_val: "Condo"
        string_val: "Single Family"
        string_val: "Single Family"
        string_val: "Condo"
        string_val: "Single Family"
        string_val: "Single Family"
        string_val: "Single Family"
        string_val: "Single Family"
        string_val: "Single Family"
        string_val: "Townhouse"
        string_val: "Single Family"
        string_val: "Condo"
        string_val: "Condo"
        string_val: "Single Family"
        string_val: "Condo"
        string_val: "Single Family"
        string_val: "Single Family"
        string_val: "Single Family"
        string_val: "Condo"
        string_val: "Single Family"
        string_val: "Single Family"
        string_val: "Condo"
        string_val: "Single Family"
        string_val: "Single Family"
        string_val: "Condo"
        string_val: "Single Family"
        string_val: "Single Family"
        string_val: "Single Family"
        string_val: "Single Family"
        string_val: "Condo"
        string_val: "Mobile / Manufactured"
        string_val: "Condo"
        string_val: "Single Family"
        string_val: "Single Family"
        string_val: "Multi Family"
        string_val: "Single Family"
        string_val: "Condo"
        string_val: "Condo"
        string_val: "Condo"
        string_val: "Single Family"
        string_val: "Condo"
        string_val: "Single Family"
        string_val: "Single Family"
        string_val: "Single Family"
        string_val: "Single Family"
        string_val: "Condo"
        string_val: "Condo"
        string_val: "Townhouse"
        string_val: "Single Family"
        string_val: "Single Family"
        string_val: "Mobile / Manufactured"
        string_val: "Single Family"
        string_val: "Single Family"
        string_val: "Condo"
        string_val: "Single Family"
        string_val: "Single Family"
        string_val: "Single Family"
        string_val: "Single Family"
        string_val: "Single Family"
        string_val: "Single Family"
        string_val: "Single Family"
        string_val: "Single Family"
        string_val: "Single Family"
        string_val: "Townhouse"
        string_val: "Single Family"
        string_val: "Single Family"
        string_val: "Condo"
        string_val: "Single Family"
        string_val: "Single Family"
        string_val: "Single Family"
        string_val: "Single Family"
        string_val: "Single Family"
        string_val: "Condo"
        string_val: "Single Family"
        string_val: "Condo"
        string_val: "Single Family"
        string_val: "Condo"
        string_val: "Single Family"
        string_val: "Single Family"
        string_val: "Single Family"
        string_val: "Single Family"
        string_val: "Single Family"
        string_val: "Single Family"
        string_val: "Mobile / Manufactured"
        string_val: "Townhouse"
        string_val: "Townhouse"
        string_val: "Single Family"
        string_val: "Single Family"
        string_val: "Condo"
        string_val: "Single Family"
        string_val: "Condo"
        string_val: "Single Family"
        string_val: "Mobile / Manufactured"
        string_val: "Townhouse"
        string_val: "Single Family"
        string_val: "Condo"
        string_val: "Condo"
        string_val: "Condo"
        string_val: "Mobile / Manufactured"
        string_val: "Single Family"
        string_val: "Condo"
        string_val: "Single Family"
        string_val: "Townhouse"
        string_val: "Single Family"
        string_val: "Single Family"
        string_val: "Single Family"
        string_val: "Condo"
        string_val: "Condo"
        string_val: "Single Family"
        string_val: "Single Family"
        string_val: "Condo"
        string_val: "Single Family"
        string_val: "Condo"
        string_val: "Mobile / Manufactured"
        string_val: "Single Family"
        string_val: "Single Family"
        string_val: "Single Family"
        string_val: "Single Family"
        string_val: "Single Family"
        string_val: "Single Family"
        string_val: "Single Family"
        string_val: "Single Family"
        string_val: "Single Family"
        string_val: "Single Family"
        string_val: "Single Family"
        string_val: "Single Family"
        string_val: "Single Family"
        string_val: "Single Family"
        string_val: "Condo"
        string_val: "Single Family"
        string_val: "Single Family"
        string_val: "Condo"
        string_val: "Condo"
        string_val: "Single Family"
        string_val: "Condo"
        string_val: "Single Family"
        string_val: "Single Family"
        string_val: "Condo"
        string_val: "Condo"
        string_val: "Condo"
        string_val: "Single Family"
        string_val: "Single Family"
        string_val: "Single Family"
        string_val: "Mobile / Manufactured"
        string_val: "Mobile / Manufactured"
        string_val: "Single Family"
        string_val: "Single Family"
        string_val: "Single Family"
        string_val: "Single Family"
        string_val: "Single Family"
        string_val: "Single Family"
        string_val: "Single Family"
        string_val: "Single Family"
        string_val: "Single Family"
        string_val: "Single Family"
        string_val: "Single Family"
        string_val: "Single Family"
        string_val: "Single Family"
        string_val: "Single Family"
        string_val: "Single Family"
        string_val: "Single Family"
        string_val: "Single Family"
        string_val: "Miscellaneous"
        string_val: "Condo"
        string_val: "Condo"
        string_val: "Condo"
        string_val: "Single Family"
        string_val: "Single Family"
        string_val: "Single Family"
        string_val: "Single Family"
        string_val: "Single Family"
        string_val: "Single Family"
        string_val: "Single Family"
        string_val: "Single Family"
        string_val: "Single Family"
        string_val: "Single Family"
        string_val: "Townhouse"
        string_val: "Single Family"
        string_val: "Single Family"
        string_val: "Single Family"
        string_val: "Single Family"
        string_val: "Single Family"
        string_val: "Single Family"
        string_val: "Condo"
        string_val: "Single Family"
        string_val: "Single Family"
        string_val: "Single Family"
        string_val: "Single Family"
        string_val: "Single Family"
        string_val: "Single Family"
        string_val: "Single Family"
        string_val: "Single Family"
        string_val: "Single Family"
        string_val: "Condo"
        string_val: "Single Family"
        string_val: "Single Family"
        string_val: "Single Family"
        string_val: "Single Family"
        string_val: "Single Family"
        string_val: "Single Family"
        string_val: "Single Family"
        string_val: "Condo"
        string_val: "Single Family"
        string_val: "Single Family"
        string_val: "Single Family"
        string_val: "Mobile / Manufactured"
        string_val: "Single Family"
        string_val: "Single Family"
        string_val: "Mobile / Manufactured"
        string_val: "Condo"
        string_val: "Single Family"
        string_val: "Single Family"
        string_val: "Multi Family"
        string_val: "Condo"
        string_val: "Single Family"
        string_val: "Single Family"
        string_val: "Single Family"
        string_val: "Condo"
        string_val: "Condo"
        string_val: "Single Family"
        string_val: "Single Family"
        string_val: "Single Family"
        string_val: "Single Family"
        string_val: "Single Family"
        string_val: "Single Family"
        string_val: "Townhouse"
        string_val: "Single Family"
        string_val: "Condo"
        string_val: "Single Family"
        string_val: "Single Family"
        string_val: "Single Family"
        string_val: "Condo"
        string_val: "Single Family"
        string_val: "Single Family"
        string_val: "Single Family"
        string_val: "Single Family"
        string_val: "Miscellaneous"
        string_val: "Single Family"
        string_val: "Single Family"
        string_val: "Single Family"
        string_val: "Single Family"
        string_val: "Single Family"
        string_val: "Single Family"
        string_val: "Condo"
        string_val: "Condo"
        string_val: "Single Family"
        string_val: "Single Family"
        string_val: "Single Family"
        string_val: "Single Family"
        string_val: "Single Family"
        string_val: "Single Family"
        string_val: "Condo"
        string_val: "Single Family"
        string_val: "Single Family"
        string_val: "Mobile / Manufactured"
        string_val: "Single Family"
        string_val: "Single Family"
        string_val: "Single Family"
        string_val: "Single Family"
        string_val: "Mobile / Manufactured"
        string_val: "Single Family"
        string_val: "Condo"
        string_val: "Single Family"
        string_val: "Single Family"
        string_val: "Single Family"
        string_val: "Single Family"
        string_val: "Single Family"
        string_val: "Townhouse"
        string_val: "Single Family"
        string_val: "Single Family"
        string_val: "Single Family"
        string_val: "Condo"
        string_val: "Single Family"
        string_val: "Townhouse"
        string_val: "Single Family"
        string_val: "Single Family"
        string_val: "Single Family"
        string_val: "Mobile / Manufactured"
        string_val: "Single Family"
        string_val: "Single Family"
        string_val: "Single Family"
        string_val: "Single Family"
        string_val: "Single Family"
        string_val: "Single Family"
        string_val: "Condo"
        string_val: "Single Family"
        string_val: "Mobile / Manufactured"
        string_val: "Single Family"
        string_val: "Single Family"
        string_val: "Townhouse"
        string_val: "Single Family"
        string_val: "Condo"
        string_val: "Miscellaneous"
        string_val: "Single Family"
        string_val: "Single Family"
        string_val: "Single Family"
        string_val: "Townhouse"
        string_val: "Single Family"
        string_val: "Single Family"
        string_val: "Single Family"
        string_val: "Mobile / Manufactured"
        string_val: "Single Family"
        string_val: "Single Family"
        string_val: "Mobile / Manufactured"
        string_val: "Single Family"
        string_val: "Single Family"
        string_val: "Single Family"
        string_val: "Single Family"
        string_val: "Single Family"
        string_val: "Single Family"
        string_val: "Single Family"
        string_val: "Single Family"
        string_val: "Single Family"
        string_val: "Single Family"
        string_val: "Single Family"
        string_val: "Single Family"
        string_val: "Single Family"
        string_val: "Single Family"
        string_val: "Single Family"
        string_val: "Single Family"
        string_val: "Single Family"
        string_val: "Condo"
        string_val: "Single Family"
        string_val: "Condo"
        string_val: "Condo"
        string_val: "Single Family"
        string_val: "Single Family"
        string_val: "Single Family"
        string_val: "Single Family"
        string_val: "Condo"
        string_val: "Condo"
        string_val: "Single Family"
        string_val: "Single Family"
        string_val: "Single Family"
        string_val: "Condo"
        string_val: "Single Family"
        string_val: "Townhouse"
        string_val: "Single Family"
        string_val: "Condo"
        string_val: "Single Family"
        string_val: "Condo"
        string_val: "Condo"
        string_val: "Single Family"
        string_val: "Single Family"
        string_val: "Single Family"
        string_val: "Single Family"
        string_val: "Single Family"
        string_val: "Single Family"
        string_val: "Single Family"
        string_val: "Condo"
        string_val: "Condo"
        string_val: "Townhouse"
        string_val: "Single Family"
        string_val: "Single Family"
        string_val: "Single Family"
        string_val: "Single Family"
        string_val: "Mobile / Manufactured"
        string_val: "Single Family"
        string_val: "Single Family"
        string_val: "Single Family"
        string_val: "Single Family"
        string_val: "Single Family"
        string_val: "Single Family"
        string_val: "Condo"
        string_val: "Single Family"
        string_val: "Single Family"
        string_val: "Single Family"
        string_val: "Condo"
        string_val: "Single Family"
        string_val: "Condo"
        string_val: "Single Family"
        string_val: "Single Family"
        string_val: "Mobile / Manufactured"
        string_val: "Mobile / Manufactured"
        string_val: "Single Family"
        string_val: "Single Family"
        string_val: "Townhouse"
        string_val: "Single Family"
        string_val: "Single Family"
        string_val: "Single Family"
        string_val: "Single Family"
        string_val: "Single Family"
        string_val: "Single Family"
        string_val: "Single Family"
        string_val: "Single Family"
        string_val: "Single Family"
        string_val: "Single Family"
        string_val: "Single Family"
        string_val: "Single Family"
        string_val: "Mobile / Manufactured"
        string_val: "Single Family"
        string_val: "Single Family"
        string_val: "Single Family"
        string_val: "Single Family"
        string_val: "Condo"
        string_val: "Single Family"
        string_val: "Single Family"
        string_val: "Condo"
        string_val: "Single Family"
        string_val: "Single Family"
        string_val: "Single Family"
        string_val: "Single Family"
        string_val: "Single Family"
        string_val: "Single Family"
        string_val: "Multi Family"
        string_val: "Townhouse"
        string_val: "Single Family"
        string_val: "Single Family"
        string_val: "Condo"
        string_val: "Single Family"
        string_val: "Condo"
        string_val: "Single Family"
        string_val: "Single Family"
        string_val: "Single Family"
        string_val: "Single Family"
        string_val: "Single Family"
        string_val: "Condo"
        string_val: "Condo"
        string_val: "Mobile / Manufactured"
        string_val: "Single Family"
        string_val: "Single Family"
        string_val: "Single Family"
        string_val: "Single Family"
        string_val: "Mobile / Manufactured"
        string_val: "Single Family"
        string_val: "Single Family"
        string_val: "Single Family"
        string_val: "Single Family"
        string_val: "Single Family"
        string_val: "Condo"
        string_val: "Single Family"
        string_val: "Single Family"
        string_val: "Condo"
        string_val: "Single Family"
        string_val: "Single Family"
        string_val: "Single Family"
        string_val: "Single Family"
        string_val: "Single Family"
        string_val: "Multi Family"
        string_val: "Single Family"
        string_val: "Single Family"
        string_val: "Single Family"
        string_val: "Single Family"
        string_val: "Mobile / Manufactured"
        string_val: "Single Family"
        string_val: "Single Family"
        string_val: "Single Family"
        string_val: "Single Family"
        string_val: "Single Family"
        string_val: "Single Family"
        string_val: "Mobile / Manufactured"
        string_val: "Mobile / Manufactured"
        string_val: "Condo"
        string_val: "Single Family"
        string_val: "Single Family"
        string_val: "Single Family"
        string_val: "Single Family"
        string_val: "Single Family"
        string_val: "Single Family"
        string_val: "Single Family"
        string_val: "Single Family"
        string_val: "Condo"
        string_val: "Single Family"
        string_val: "Single Family"
        string_val: "Single Family"
        string_val: "Single Family"
        string_val: "Single Family"
        string_val: "Single Family"
        string_val: "Single Family"
        string_val: "Condo"
        string_val: "Condo"
        string_val: "Single Family"
        string_val: "Single Family"
        string_val: "Single Family"
        string_val: "Condo"
        string_val: "Condo"
        string_val: "Single Family"
        string_val: "Single Family"
        string_val: "Mobile / Manufactured"
        string_val: "Condo"
        string_val: "Condo"
        string_val: "Single Family"
        string_val: "Single Family"
        string_val: "Single Family"
        string_val: "Single Family"
        string_val: "Single Family"
        string_val: "Single Family"
        string_val: "Single Family"
        string_val: "Single Family"
        string_val: "Condo"
        string_val: "Condo"
        string_val: "Single Family"
        string_val: "Single Family"
        string_val: "Condo"
        string_val: "Single Family"
        string_val: "Single Family"
        string_val: "Single Family"
        string_val: "Single Family"
        string_val: "Single Family"
        string_val: "Single Family"
        string_val: "Single Family"
        string_val: "Single Family"
        string_val: "Single Family"
        string_val: "Single Family"
        string_val: "Single Family"
        string_val: "Single Family"
        string_val: "Mobile / Manufactured"
        string_val: "Mobile / Manufactured"
        string_val: "Single Family"
        string_val: "Single Family"
        string_val: "Single Family"
        string_val: "Single Family"
        string_val: "Mobile / Manufactured"
        string_val: "Single Family"
        string_val: "Single Family"
        string_val: "Single Family"
        string_val: "Single Family"
        string_val: "Single Family"
        string_val: "Single Family"
        string_val: "Single Family"
        string_val: "Single Family"
        string_val: "Condo"
        string_val: "Single Family"
        string_val: "Single Family"
        string_val: "Single Family"
        string_val: "Single Family"
        string_val: "Condo"
        string_val: "Single Family"
        string_val: "Single Family"
        string_val: "Single Family"
        string_val: "Single Family"
        string_val: "Condo"
        string_val: "Single Family"
        string_val: "Single Family"
        string_val: "Multi Family"
        string_val: "Single Family"
        string_val: "Townhouse"
        string_val: "Single Family"
        string_val: "Single Family"
        string_val: "Condo"
        string_val: "Single Family"
        string_val: "Townhouse"
        string_val: "Single Family"
        string_val: "Condo"
        string_val: "Condo"
        string_val: "Condo"
        string_val: "Townhouse"
        string_val: "Single Family"
        string_val: "Condo"
        string_val: "Single Family"
        string_val: "Single Family"
        string_val: "Single Family"
        string_val: "Condo"
        string_val: "Condo"
        string_val: "Condo"
        string_val: "Single Family"
        string_val: "Single Family"
        string_val: "Single Family"
        string_val: "Single Family"
        string_val: "Single Family"
        string_val: "Mobile / Manufactured"
        string_val: "Single Family"
        string_val: "Single Family"
        string_val: "Condo"
        string_val: "Single Family"
        string_val: "Single Family"
        string_val: "Single Family"
        string_val: "Condo"
        string_val: "Single Family"
        string_val: "Single Family"
        string_val: "Single Family"
        string_val: "Single Family"
        string_val: "Single Family"
        string_val: "Single Family"
        string_val: "Single Family"
        string_val: "Mobile / Manufactured"
        string_val: "Single Family"
        string_val: "Single Family"
        string_val: "Single Family"
        string_val: "Condo"
        string_val: "Mobile / Manufactured"
        string_val: "Single Family"
        string_val: "Single Family"
        string_val: "Single Family"
        string_val: "Condo"
        string_val: "Townhouse"
        string_val: "Single Family"
        string_val: "Single Family"
        string_val: "Single Family"
        string_val: "Single Family"
        string_val: "Townhouse"
        string_val: "Single Family"
        string_val: "Single Family"
        string_val: "Single Family"
        string_val: "Single Family"
        string_val: "Single Family"
        string_val: "Single Family"
        string_val: "Condo"
        string_val: "Single Family"
        string_val: "Single Family"
        string_val: "Single Family"
        string_val: "Single Family"
        string_val: "Single Family"
        string_val: "Single Family"
        string_val: "Single Family"
        string_val: "Single Family"
        string_val: "Single Family"
        string_val: "Condo"
        string_val: "Single Family"
        string_val: "Single Family"
        string_val: "Single Family"
        string_val: "Single Family"
        string_val: "Mobile / Manufactured"
        string_val: "Single Family"
        string_val: "Single Family"
        string_val: "Single Family"
        string_val: "Single Family"
        string_val: "Single Family"
        string_val: "Single Family"
        string_val: "Condo"
        string_val: "Single Family"
        string_val: "Condo"
        string_val: "Single Family"
        string_val: "Condo"
        string_val: "Single Family"
        string_val: "Condo"
        string_val: "Condo"
        string_val: "Condo"
        string_val: "Condo"
        string_val: "Single Family"
        string_val: "Condo"
        string_val: "Condo"
        string_val: "Single Family"
        string_val: "Cooperative"
        string_val: "Single Family"
        string_val: "Condo"
        string_val: "Single Family"
        string_val: "Single Family"
        string_val: "Mobile / Manufactured"
        string_val: "Single Family"
        string_val: "Single Family"
        string_val: "Single Family"
        string_val: "Single Family"
        string_val: "Single Family"
        string_val: "Single Family"
        string_val: "Mobile / Manufactured"
        string_val: "Single Family"
        string_val: "Single Family"
        string_val: "Single Family"
        string_val: "Single Family"
        string_val: "Condo"
        string_val: "Single Family"
        string_val: "Single Family"
        string_val: "Condo"
        string_val: "Single Family"
        string_val: "Single Family"
        string_val: "Single Family"
        string_val: "Single Family"
        string_val: "Single Family"
        string_val: "Single Family"
        string_val: "Condo"
        string_val: "Single Family"
        string_val: "Single Family"
        string_val: "Single Family"
        string_val: "Single Family"
        string_val: "Condo"
        string_val: "Condo"
        string_val: "Single Family"
        string_val: "Townhouse"
        string_val: "Condo"
        string_val: "Single Family"
        string_val: "Single Family"
        string_val: "Single Family"
        string_val: "Single Family"
        string_val: "Single Family"
        string_val: "Single Family"
        string_val: "Single Family"
        string_val: "Townhouse"
        string_val: "Single Family"
        string_val: "Single Family"
        string_val: "Single Family"
        string_val: "Single Family"
        string_val: "Single Family"
        string_val: "Single Family"
        string_val: "Single Family"
        string_val: "Mobile / Manufactured"
        string_val: "Single Family"
        string_val: "Single Family"
        string_val: "Townhouse"
        string_val: "Single Family"
        string_val: "Single Family"
        string_val: "Single Family"
        string_val: "Single Family"
        string_val: "Single Family"
        string_val: "Condo"
        string_val: "Single Family"
        string_val: "Single Family"
        string_val: "Mobile / Manufactured"
        string_val: "Condo"
        string_val: "Single Family"
        string_val: "Single Family"
        string_val: "Condo"
        string_val: "Single Family"
        string_val: "Single Family"
        string_val: "Condo"
        string_val: "Mobile / Manufactured"
        string_val: "Single Family"
        string_val: "Single Family"
        string_val: "Single Family"
        string_val: "Single Family"
        string_val: "Single Family"
        string_val: "Single Family"
        string_val: "Single Family"
        string_val: "Condo"
        string_val: "Condo"
        string_val: "Single Family"
        string_val: "Condo"
        string_val: "Mobile / Manufactured"
        string_val: "Single Family"
        string_val: "Mobile / Manufactured"
        string_val: "Single Family"
        string_val: "Condo"
        string_val: "Townhouse"
        string_val: "Single Family"
        string_val: "Condo"
        string_val: "Single Family"
        string_val: "Single Family"
        string_val: "Single Family"
        string_val: "Single Family"
        string_val: "Single Family"
        string_val: "Mobile / Manufactured"
        string_val: "Single Family"
        string_val: "Single Family"
        string_val: "Single Family"
        string_val: "Single Family"
        string_val: "Condo"
        string_val: "Single Family"
        string_val: "Condo"
        string_val: "Condo"
        string_val: "Single Family"
        string_val: "Mobile / Manufactured"
        string_val: "Single Family"
        string_val: "Single Family"
        string_val: "Single Family"
        string_val: "Single Family"
        string_val: "Single Family"
        string_val: "Single Family"
        string_val: "Mobile / Manufactured"
        string_val: "Condo"
        string_val: "Condo"
        string_val: "Multi Family"
        string_val: "Single Family"
        string_val: "Mobile / Manufactured"
        string_val: "Single Family"
        string_val: "Single Family"
        string_val: "Single Family"
        string_val: "Single Family"
        string_val: "Single Family"
        string_val: "Single Family"
        string_val: "Single Family"
        string_val: "Condo"
        string_val: "Mobile / Manufactured"
        string_val: "Single Family"
        string_val: "Condo"
        string_val: "Condo"
        string_val: "Single Family"
        string_val: "Single Family"
        string_val: "Single Family"
        string_val: "Condo"
        string_val: "Single Family"
        string_val: "Single Family"
        string_val: "Single Family"
        string_val: "Single Family"
        string_val: "Single Family"
        string_val: "Condo"
        string_val: "Single Family"
        string_val: "Single Family"
        string_val: "Single Family"
        string_val: "Single Family"
        string_val: "Single Family"
        string_val: "Condo"
        string_val: "Single Family"
        string_val: "Condo"
        string_val: "Condo"
        string_val: "Single Family"
        string_val: "Multi Family"
        string_val: "Multi Family"
        string_val: "Single Family"
        string_val: "Single Family"
        string_val: "Mobile / Manufactured"
        string_val: "Condo"
        string_val: "Condo"
        string_val: "Single Family"
        string_val: "Single Family"
        string_val: "Single Family"
        string_val: "Single Family"
        string_val: "Single Family"
        string_val: "Single Family"
        string_val: "Single Family"
        string_val: "Single Family"
        string_val: "Single Family"
        string_val: "Single Family"
        string_val: "Single Family"
        string_val: "Single Family"
        string_val: "Mobile / Manufactured"
        string_val: "Mobile / Manufactured"
        string_val: "Single Family"
        string_val: "Single Family"
        string_val: "Condo"
        string_val: "Single Family"
        string_val: "Single Family"
        string_val: "Single Family"
        string_val: "Single Family"
        string_val: "Single Family"
        string_val: "Single Family"
        string_val: "Single Family"
        string_val: "Single Family"
        string_val: "Single Family"
        string_val: "Single Family"
        string_val: "Single Family"
        string_val: "Miscellaneous"
        string_val: "Single Family"
        string_val: "Mobile / Manufactured"
        string_val: "Single Family"
        string_val: "Condo"
        string_val: "Single Family"
        string_val: "Condo"
        string_val: "Condo"
        string_val: "Single Family"
        string_val: "Mobile / Manufactured"
        string_val: "Single Family"
        string_val: "Single Family"
        string_val: "Single Family"
        string_val: "Single Family"
        string_val: "Single Family"
        string_val: "Single Family"
        string_val: "Single Family"
        string_val: "Townhouse"
        string_val: "Single Family"
        string_val: "Condo"
        string_val: "Single Family"
        string_val: "Single Family"
        string_val: "Single Family"
        string_val: "Single Family"
        string_val: "Single Family"
        string_val: "Condo"
        string_val: "Single Family"
        string_val: "Single Family"
        string_val: "Single Family"
        string_val: "Single Family"
        string_val: "Mobile / Manufactured"
        string_val: "Single Family"
        string_val: "Condo"
        string_val: "Single Family"
        string_val: "Single Family"
        string_val: "Single Family"
        string_val: "Single Family"
        string_val: "Single Family"
        string_val: "Single Family"
        string_val: "Single Family"
        string_val: "Single Family"
        string_val: "Single Family"
        string_val: "Condo"
        string_val: "Single Family"
        string_val: "Single Family"
        string_val: "Single Family"
        string_val: "Condo"
        string_val: "Single Family"
        string_val: "Single Family"
        string_val: "Condo"
        string_val: "Single Family"
        string_val: "Single Family"
        string_val: "Single Family"
        string_val: "Single Family"
        string_val: "Single Family"
        string_val: "Single Family"
        string_val: "Condo"
        string_val: "Single Family"
        string_val: "Mobile / Manufactured"
        string_val: "Single Family"
        string_val: "Single Family"
        string_val: "Single Family"
        string_val: "Single Family"
        string_val: "Single Family"
        string_val: "Single Family"
        string_val: "Single Family"
        string_val: "Condo"
        string_val: "Single Family"
        string_val: "Single Family"
        string_val: "Mobile / Manufactured"
        string_val: "Single Family"
        string_val: "Single Family"
        string_val: "Single Family"
        string_val: "Condo"
        string_val: "Single Family"
        string_val: "Condo"
        string_val: "Condo"
        string_val: "Single Family"
        string_val: "Single Family"
        string_val: "Single Family"
        string_val: "Townhouse"
        string_val: "Multi Family"
        string_val: "Single Family"
        string_val: "Mobile / Manufactured"
        string_val: "Mobile / Manufactured"
        string_val: "Single Family"
        string_val: "Single Family"
        string_val: "Single Family"
        string_val: "Single Family"
        string_val: "Single Family"
        string_val: "Single Family"
        string_val: "Single Family"
        string_val: "Mobile / Manufactured"
        string_val: "Single Family"
        string_val: "Single Family"
        string_val: "Single Family"
        string_val: "Single Family"
        string_val: "Single Family"
        string_val: "Single Family"
        string_val: "Condo"
        string_val: "Condo"
        string_val: "Single Family"
        string_val: "Single Family"
        string_val: "Single Family"
        string_val: "Single Family"
        string_val: "Single Family"
        string_val: "Single Family"
        string_val: "Single Family"
        string_val: "Single Family"
        string_val: "Condo"
        string_val: "Single Family"
        string_val: "Mobile / Manufactured"
        string_val: "Condo"
        string_val: "Single Family"
        string_val: "Single Family"
        string_val: "Single Family"
        string_val: "Townhouse"
        string_val: "Single Family"
        string_val: "Townhouse"
        string_val: "Single Family"
        string_val: "Single Family"
        string_val: "Condo"
        string_val: "Single Family"
        string_val: "Single Family"
        string_val: "Single Family"
        string_val: "Single Family"
        string_val: "Single Family"
        string_val: "Condo"
        string_val: "Single Family"
        string_val: "Single Family"
        string_val: "Condo"
        string_val: "Single Family"
        string_val: "Single Family"
        string_val: "Condo"
        string_val: "Single Family"
        string_val: "Single Family"
        string_val: "Single Family"
        string_val: "Single Family"
        string_val: "Single Family"
        string_val: "Single Family"
        string_val: "Single Family"
        string_val: "Single Family"
        string_val: "Single Family"
        string_val: "Single Family"
        string_val: "Condo"
        string_val: "Single Family"
        string_val: "Single Family"
        string_val: "Condo"
        string_val: "Single Family"
        string_val: "Single Family"
        string_val: "Single Family"
        string_val: "Single Family"
        string_val: "Single Family"
        string_val: "Single Family"
        string_val: "Single Family"
        string_val: "Single Family"
        string_val: "Single Family"
        string_val: "Single Family"
        string_val: "Single Family"
        string_val: "Single Family"
        string_val: "Townhouse"
        string_val: "Single Family"
        string_val: "Condo"
        string_val: "Single Family"
        string_val: "Single Family"
        string_val: "Single Family"
        string_val: "Single Family"
        string_val: "Single Family"
        string_val: "Single Family"
        string_val: "Single Family"
        string_val: "Single Family"
        string_val: "Single Family"
        string_val: "Single Family"
        string_val: "Single Family"
        string_val: "Single Family"
        string_val: "Single Family"
        string_val: "Condo"
        string_val: "Mobile / Manufactured"
        string_val: "Single Family"
        string_val: "Single Family"
        string_val: "Condo"
        string_val: "Single Family"
        string_val: "Condo"
        string_val: "Single Family"
        string_val: "Single Family"
        string_val: "Single Family"
        string_val: "Single Family"
        string_val: "Single Family"
        string_val: "Single Family"
        string_val: "Single Family"
        string_val: "Single Family"
        string_val: "Single Family"
        string_val: "Mobile / Manufactured"
        string_val: "Single Family"
        string_val: "Single Family"
        string_val: "Single Family"
        string_val: "Condo"
        string_val: "Single Family"
        string_val: "Single Family"
        string_val: "Condo"
        string_val: "Single Family"
        string_val: "Single Family"
        string_val: "Multi Family"
        string_val: "Condo"
        string_val: "Single Family"
        string_val: "Townhouse"
        string_val: "Multi Family"
        string_val: "Condo"
        string_val: "Single Family"
        string_val: "Single Family"
        string_val: "Single Family"
        string_val: "Single Family"
        string_val: "Condo"
        string_val: "Single Family"
        string_val: "Single Family"
        string_val: "Condo"
        string_val: "Single Family"
        string_val: "Single Family"
        string_val: "Townhouse"
        string_val: "Single Family"
        string_val: "Single Family"
        string_val: "Single Family"
        string_val: "Single Family"
        string_val: "Mobile / Manufactured"
        string_val: "Single Family"
        string_val: "Single Family"
        string_val: "Mobile / Manufactured"
        string_val: "Single Family"
        string_val: "Mobile / Manufactured"
        string_val: "Condo"
        string_val: "Townhouse"
        string_val: "Single Family"
        string_val: "Single Family"
        string_val: "Single Family"
        string_val: "Single Family"
        string_val: "Single Family"
        string_val: "Mobile / Manufactured"
        string_val: "Single Family"
        string_val: "Mobile / Manufactured"
        string_val: "Condo"
        string_val: "Mobile / Manufactured"
        string_val: "Single Family"
        string_val: "Single Family"
        string_val: "Single Family"
        string_val: "Condo"
        string_val: "Single Family"
        string_val: "Single Family"
        string_val: "Single Family"
        string_val: "Condo"
        string_val: "Condo"
        string_val: "Single Family"
        string_val: "Mobile / Manufactured"
        string_val: "Single Family"
        string_val: "Single Family"
        string_val: "Single Family"
        string_val: "Single Family"
        string_val: "Single Family"
        string_val: "Single Family"
        string_val: "Condo"
        string_val: "Mobile / Manufactured"
        string_val: "Single Family"
        string_val: "Single Family"
        string_val: "Mobile / Manufactured"
        string_val: "Single Family"
        string_val: "Single Family"
        string_val: "Single Family"
        string_val: "Single Family"
        string_val: "Miscellaneous"
        string_val: "Condo"
        string_val: "Townhouse"
        string_val: "Single Family"
        string_val: "Single Family"
        string_val: "Single Family"
        string_val: "Single Family"
        string_val: "Single Family"
        string_val: "Single Family"
        string_val: "Single Family"
        string_val: "Single Family"
        string_val: "Condo"
        string_val: "Mobile / Manufactured"
        string_val: "Single Family"
        string_val: "Single Family"
        string_val: "Condo"
        string_val: "Single Family"
        string_val: "Condo"
        string_val: "Single Family"
        string_val: "Single Family"
        string_val: "Single Family"
        string_val: "Single Family"
        string_val: "Single Family"
        string_val: "Condo"
        string_val: "Single Family"
        string_val: "Single Family"
        string_val: "Single Family"
        string_val: "Single Family"
        string_val: "Single Family"
        string_val: "Single Family"
        string_val: "Single Family"
        string_val: "Townhouse"
        string_val: "Condo"
        string_val: "Single Family"
        string_val: "Single Family"
        string_val: "Single Family"
        string_val: "Condo"
        string_val: "Single Family"
        string_val: "Single Family"
        string_val: "Mobile / Manufactured"
        string_val: "Single Family"
        string_val: "Single Family"
        string_val: "Single Family"
        string_val: "Single Family"
        string_val: "Mobile / Manufactured"
        string_val: "Mobile / Manufactured"
        string_val: "Single Family"
        string_val: "Single Family"
        string_val: "Single Family"
        string_val: "Single Family"
        string_val: "Townhouse"
        string_val: "Single Family"
        string_val: "Single Family"
        string_val: "Condo"
        string_val: "Single Family"
        string_val: "Single Family"
        string_val: "Single Family"
        string_val: "Single Family"
        string_val: "Condo"
        string_val: "Condo"
        string_val: "Condo"
        string_val: "Single Family"
        string_val: "Condo"
        string_val: "Single Family"
        string_val: "Single Family"
        string_val: "Single Family"
        string_val: "Single Family"
        string_val: "Condo"
        string_val: "Single Family"
        string_val: "Single Family"
        string_val: "Condo"
        string_val: "Single Family"
        string_val: "Single Family"
        string_val: "Condo"
        string_val: "Single Family"
        string_val: "Single Family"
        string_val: "Single Family"
        string_val: "Single Family"
        string_val: "Condo"
        string_val: "Single Family"
        string_val: "Single Family"
        string_val: "Single Family"
        string_val: "Single Family"
        string_val: "Single Family"
        string_val: "Single Family"
        string_val: "Mobile / Manufactured"
        string_val: "Single Family"
        string_val: "Single Family"
        string_val: "Single Family"
        string_val: "Single Family"
        string_val: "Single Family"
        string_val: "Single Family"
        string_val: "Single Family"
        string_val: "Single Family"
        string_val: "Single Family"
        string_val: "Single Family"
        string_val: "Single Family"
        string_val: "Single Family"
        string_val: "Condo"
        string_val: "Single Family"
        string_val: "Single Family"
        string_val: "Single Family"
        string_val: "Condo"
        string_val: "Single Family"
        string_val: "Single Family"
        string_val: "Single Family"
        string_val: "Mobile / Manufactured"
        string_val: "Single Family"
        string_val: "Single Family"
        string_val: "Single Family"
        string_val: "Single Family"
        string_val: "Miscellaneous"
        string_val: "Multi Family"
        string_val: "Condo"
        string_val: "Condo"
        string_val: "Condo"
        string_val: "Single Family"
        string_val: "Single Family"
        string_val: "Single Family"
        string_val: "Single Family"
        string_val: "Single Family"
        string_val: "Single Family"
        string_val: "Single Family"
        string_val: "Townhouse"
        string_val: "Single Family"
        string_val: "Single Family"
        string_val: "Single Family"
        string_val: "Condo"
        string_val: "Single Family"
        string_val: "Single Family"
        string_val: "Single Family"
        string_val: "Single Family"
        string_val: "Single Family"
        string_val: "Single Family"
        string_val: "Single Family"
        string_val: "Condo"
        string_val: "Condo"
        string_val: "Single Family"
        string_val: "Townhouse"
        string_val: "Condo"
        string_val: "Single Family"
        string_val: "Mobile / Manufactured"
        string_val: "Single Family"
        string_val: "Single Family"
        string_val: "Single Family"
        string_val: "Single Family"
        string_val: "Condo"
        string_val: "Single Family"
        string_val: "Condo"
        string_val: "Mobile / Manufactured"
        string_val: "Condo"
        string_val: "Single Family"
        string_val: "Mobile / Manufactured"
        string_val: "Single Family"
        string_val: "Single Family"
        string_val: "Single Family"
        string_val: "Single Family"
        string_val: "Mobile / Manufactured"
        string_val: "Single Family"
        string_val: "Single Family"
        string_val: "Single Family"
        string_val: "Single Family"
        string_val: "Single Family"
        string_val: "Single Family"
        string_val: "Single Family"
        string_val: "Single Family"
        string_val: "Single Family"
        string_val: "Single Family"
        string_val: "Single Family"
        string_val: "Single Family"
        string_val: "Single Family"
        string_val: "Single Family"
        string_val: "Single Family"
        string_val: "Single Family"
        string_val: "Single Family"
        string_val: "Condo"
        string_val: "Single Family"
        string_val: "Single Family"
        string_val: "Single Family"
        string_val: "Single Family"
        string_val: "Single Family"
        string_val: "Condo"
        string_val: "Condo"
        string_val: "Single Family"
        string_val: "Single Family"
        string_val: "Single Family"
        string_val: "Condo"
        string_val: "Single Family"
        string_val: "Mobile / Manufactured"
        string_val: "Single Family"
        string_val: "Single Family"
        string_val: "Single Family"
        string_val: "Single Family"
        string_val: "Single Family"
        string_val: "Single Family"
        string_val: "Single Family"
        string_val: "Townhouse"
        string_val: "Single Family"
        string_val: "Single Family"
        string_val: "Single Family"
        string_val: "Single Family"
        string_val: "Single Family"
        string_val: "Condo"
        string_val: "Condo"
        string_val: "Single Family"
        string_val: "Single Family"
        string_val: "Single Family"
        string_val: "Single Family"
        string_val: "Single Family"
        string_val: "Townhouse"
        string_val: "Single Family"
        string_val: "Single Family"
        string_val: "Single Family"
        string_val: "Single Family"
        string_val: "Single Family"
        string_val: "Single Family"
        string_val: "Apartment"
        string_val: "Single Family"
        string_val: "Single Family"
        string_val: "Townhouse"
        string_val: "Single Family"
        string_val: "Single Family"
        string_val: "Single Family"
        string_val: "Single Family"
        string_val: "Condo"
        string_val: "Single Family"
        string_val: "Mobile / Manufactured"
        string_val: "Single Family"
        string_val: "Single Family"
        string_val: "Single Family"
        string_val: "Single Family"
        string_val: "Single Family"
        string_val: "Condo"
        string_val: "Condo"
        string_val: "Single Family"
        string_val: "Single Family"
        string_val: "Mobile / Manufactured"
        string_val: "Single Family"
        string_val: "Single Family"
        string_val: "Townhouse"
        string_val: "Townhouse"
        string_val: "Single Family"
        string_val: "Mobile / Manufactured"
        string_val: "Condo"
        string_val: "Mobile / Manufactured"
        string_val: "Single Family"
        string_val: "Single Family"
        string_val: "Single Family"
        string_val: "Condo"
        string_val: "Single Family"
        string_val: "Single Family"
        string_val: "Single Family"
        string_val: "Single Family"
        string_val: "Single Family"
        string_val: "Single Family"
        string_val: "Single Family"
        string_val: "Single Family"
        string_val: "Mobile / Manufactured"
        string_val: "Single Family"
        string_val: "Condo"
        string_val: "Condo"
        string_val: "Single Family"
        string_val: "Single Family"
        string_val: "Condo"
        string_val: "Single Family"
        string_val: "Condo"
        string_val: "Single Family"
        string_val: "Single Family"
        string_val: "Single Family"
        string_val: "Single Family"
        string_val: "Single Family"
        string_val: "Mobile / Manufactured"
        string_val: "Mobile / Manufactured"
        string_val: "Single Family"
        string_val: "Single Family"
        string_val: "Single Family"
        string_val: "Townhouse"
        string_val: "Single Family"
        string_val: "Single Family"
        string_val: "Single Family"
        string_val: "Single Family"
        string_val: "Condo"
        string_val: "Single Family"
        string_val: "Single Family"
        string_val: "Single Family"
        string_val: "Condo"
        string_val: "Single Family"
        string_val: "Condo"
        string_val: "Condo"
        string_val: "Single Family"
        string_val: "Single Family"
        string_val: "Single Family"
        string_val: "Single Family"
        string_val: "Townhouse"
        string_val: "Single Family"
        string_val: "Condo"
        string_val: "Single Family"
        string_val: "Single Family"
        string_val: "Single Family"
        string_val: "Condo"
        string_val: "Townhouse"
        string_val: "Single Family"
        string_val: "Mobile / Manufactured"
        string_val: "Condo"
        string_val: "Single Family"
        string_val: "Single Family"
        string_val: "Single Family"
        string_val: "Single Family"
        string_val: "Mobile / Manufactured"
        string_val: "Single Family"
        string_val: "Multi Family"
        string_val: "Single Family"
        string_val: "Single Family"
        string_val: "Single Family"
        string_val: "Mobile / Manufactured"
        string_val: "Single Family"
        string_val: "Condo"
        string_val: "Condo"
        string_val: "Single Family"
        string_val: "Single Family"
        string_val: "Single Family"
        string_val: "Single Family"
        string_val: "Single Family"
        string_val: "Single Family"
        string_val: "Single Family"
        string_val: "Single Family"
        string_val: "Single Family"
        string_val: "Single Family"
        string_val: "Single Family"
        string_val: "Condo"
        string_val: "Condo"
        string_val: "Single Family"
        string_val: "Single Family"
        string_val: "Single Family"
        string_val: "Single Family"
        string_val: "Single Family"
        string_val: "Single Family"
        string_val: "Single Family"
        string_val: "Condo"
        string_val: "Single Family"
        string_val: "Condo"
        string_val: "Single Family"
        string_val: "Single Family"
        string_val: "Single Family"
        string_val: "Single Family"
        string_val: "Single Family"
        string_val: "Single Family"
        string_val: "Townhouse"
        string_val: "Townhouse"
        string_val: "Single Family"
        string_val: "Single Family"
        string_val: "Single Family"
        string_val: "Single Family"
        string_val: "Multi Family"
        string_val: "Single Family"
        string_val: "Single Family"
        string_val: "Single Family"
        string_val: "Single Family"
        string_val: "Condo"
        string_val: "Single Family"
        string_val: "Single Family"
        string_val: "Single Family"
        string_val: "Single Family"
        string_val: "Single Family"
        string_val: "Single Family"
        string_val: "Condo"
        string_val: "Single Family"
        string_val: "Single Family"
        string_val: "Single Family"
        string_val: "Single Family"
        string_val: "Single Family"
        string_val: "Single Family"
        string_val: "Single Family"
        string_val: "Townhouse"
        string_val: "Mobile / Manufactured"
        string_val: "Single Family"
        string_val: "Condo"
        string_val: "Condo"
        string_val: "Single Family"
        string_val: "Single Family"
        string_val: "Single Family"
        string_val: "Single Family"
        string_val: "Single Family"
        string_val: "Multi Family"
        string_val: "Single Family"
        string_val: "Single Family"
        string_val: "Single Family"
        string_val: "Condo"
        string_val: "Condo"
        string_val: "Single Family"
        string_val: "Single Family"
        string_val: "Single Family"
        string_val: "Mobile / Manufactured"
        string_val: "Townhouse"
        string_val: "Single Family"
        string_val: "Mobile / Manufactured"
        string_val: "Single Family"
        string_val: "Condo"
        string_val: "Single Family"
        string_val: "Single Family"
        string_val: "Single Family"
        string_val: "Condo"
        string_val: "Single Family"
        string_val: "Single Family"
        string_val: "Single Family"
        string_val: "Townhouse"
        string_val: "Single Family"
        string_val: "Single Family"
        string_val: "Single Family"
        string_val: "Single Family"
        string_val: "Single Family"
        string_val: "Condo"
        string_val: "Condo"
        string_val: "Single Family"
        string_val: "Single Family"
        string_val: "Single Family"
        string_val: "Single Family"
        string_val: "Single Family"
        string_val: "Single Family"
        string_val: "Condo"
        string_val: "Single Family"
        string_val: "Condo"
        string_val: "Single Family"
        string_val: "Single Family"
        string_val: "Single Family"
        string_val: "Mobile / Manufactured"
        string_val: "Single Family"
        string_val: "Single Family"
        string_val: "Single Family"
        string_val: "Single Family"
        string_val: "Single Family"
        string_val: "Single Family"
        string_val: "Single Family"
        string_val: "Single Family"
        string_val: "Single Family"
        string_val: "Single Family"
        string_val: "Single Family"
        string_val: "Condo"
        string_val: "Single Family"
        string_val: "Townhouse"
        string_val: "Single Family"
        string_val: "Single Family"
        string_val: "Single Family"
        string_val: "Single Family"
        string_val: "Condo"
        string_val: "Single Family"
        string_val: "Condo"
        string_val: "Condo"
        string_val: "Single Family"
        string_val: "Single Family"
        string_val: "Single Family"
        string_val: "Single Family"
        string_val: "Single Family"
        string_val: "Multi Family"
        string_val: "Single Family"
        string_val: "Condo"
        string_val: "Single Family"
        string_val: "Single Family"
        string_val: "Single Family"
        string_val: "Single Family"
        string_val: "Condo"
        string_val: "Single Family"
        string_val: "Single Family"
        string_val: "Single Family"
        string_val: "Single Family"
        string_val: "Single Family"
        string_val: "Townhouse"
        string_val: "Single Family"
        string_val: "Single Family"
        string_val: "Mobile / Manufactured"
        string_val: "Single Family"
        string_val: "Mobile / Manufactured"
        string_val: "Single Family"
        string_val: "Single Family"
        string_val: "Single Family"
        string_val: "Single Family"
        string_val: "Single Family"
        string_val: "Single Family"
        string_val: "Condo"
        string_val: "Single Family"
        string_val: "Condo"
        string_val: "Single Family"
        string_val: "Single Family"
        string_val: "Single Family"
        string_val: "Condo"
        string_val: "Single Family"
        string_val: "Single Family"
        string_val: "Townhouse"
        string_val: "Single Family"
        string_val: "Single Family"
        string_val: "Townhouse"
        string_val: "Single Family"
        string_val: "Single Family"
        string_val: "Townhouse"
        string_val: "Single Family"
        string_val: "Single Family"
        string_val: "Condo"
        string_val: "Single Family"
        string_val: "Single Family"
        string_val: "Condo"
        string_val: "Condo"
        string_val: "Single Family"
        string_val: "Single Family"
        string_val: "Single Family"
        string_val: "Single Family"
        string_val: "Single Family"
        string_val: "Townhouse"
        string_val: "Single Family"
        string_val: "Single Family"
        string_val: "Single Family"
        string_val: "Single Family"
        string_val: "Condo"
        string_val: "Condo"
        string_val: "Single Family"
        string_val: "Single Family"
        string_val: "Single Family"
        string_val: "Condo"
        string_val: "Single Family"
        string_val: "Single Family"
        string_val: "Condo"
        string_val: "Single Family"
        string_val: "Single Family"
        string_val: "Single Family"
        string_val: "Single Family"
        string_val: "Single Family"
        string_val: "Condo"
        string_val: "Condo"
        string_val: "Townhouse"
        string_val: "Single Family"
        string_val: "Single Family"
        string_val: "Single Family"
        string_val: "Single Family"
        string_val: "Townhouse"
        string_val: "Single Family"
        string_val: "Miscellaneous"
        string_val: "Condo"
        string_val: "Single Family"
        string_val: "Condo"
        string_val: "Single Family"
        string_val: "Townhouse"
        string_val: "Miscellaneous"
        string_val: "Condo"
        string_val: "Mobile / Manufactured"
        string_val: "Condo"
        string_val: "Single Family"
        string_val: "Single Family"
        string_val: "Single Family"
        string_val: "Single Family"
        string_val: "Condo"
        string_val: "Single Family"
        string_val: "Single Family"
        string_val: "Single Family"
        string_val: "Single Family"
        string_val: "Condo"
        string_val: "Single Family"
        string_val: "Single Family"
        string_val: "Single Family"
        string_val: "Single Family"
        string_val: "Single Family"
        string_val: "Single Family"
        string_val: "Single Family"
        string_val: "Single Family"
        string_val: "Single Family"
        string_val: "Single Family"
        string_val: "Single Family"
        string_val: "Single Family"
        string_val: "Single Family"
        string_val: "Single Family"
        string_val: "Single Family"
        string_val: "Single Family"
        string_val: "Mobile / Manufactured"
        string_val: "Single Family"
        string_val: "Single Family"
        string_val: "Single Family"
        string_val: "Single Family"
        string_val: "Single Family"
        string_val: "Condo"
        string_val: "Single Family"
        string_val: "Single Family"
        string_val: "Mobile / Manufactured"
        string_val: "Single Family"
        string_val: "Single Family"
        string_val: "Single Family"
        string_val: "Condo"
        string_val: "Single Family"
        string_val: "Single Family"
        string_val: "Condo"
        string_val: "Single Family"
        string_val: "Single Family"
        string_val: "Single Family"
        string_val: "Single Family"
        string_val: "Single Family"
        string_val: "Single Family"
        string_val: "Single Family"
        string_val: "Single Family"
        string_val: "Condo"
        string_val: "Single Family"
        string_val: "Single Family"
        string_val: "Single Family"
        string_val: "Condo"
        string_val: "Condo"
        string_val: "Single Family"
        string_val: "Single Family"
        string_val: "Townhouse"
        string_val: "Single Family"
        string_val: "Condo"
        string_val: "Condo"
        string_val: "Condo"
        string_val: "Single Family"
        string_val: "Single Family"
        string_val: "Single Family"
        string_val: "Single Family"
        string_val: "Single Family"
        string_val: "Condo"
        string_val: "Condo"
…
  input: "^mean/total/Assign"
  input: "^mean/count/Assign"
}
node {
  name: "init_all_tables"
  op: "NoOp"
}
node {
  name: "group_deps_1"
  op: "NoOp"
  input: "^init_2"
  input: "^init_all_tables"
}
node {
  name: "Merge/MergeSummary"
  op: "MergeSummary"
  input: "loss"
  input: "loss_1"
  attr {
    key: "N"
    value {
      i: 2
    }
  }
  attr {
    key: "_output_shapes"
    value {
      list {
        shape {
        }
      }
    }
  }
}
node {
  name: "save/Const"
  op: "Const"
  attr {
    key: "_output_shapes"
    value {
      list {
        shape {
        }
      }
    }
  }
  attr {
    key: "dtype"
    value {
      type: DT_STRING
    }
  }
  attr {
    key: "value"
    value {
      tensor {
        dtype: DT_STRING
        tensor_shape {
        }
        string_val: "model"
      }
    }
  }
}
node {
  name: "save/num_shards"
  op: "Const"
  attr {
    key: "_output_shapes"
    value {
      list {
        shape {
        }
      }
    }
  }
  attr {
    key: "dtype"
    value {
      type: DT_INT32
    }
  }
  attr {
    key: "value"
    value {
      tensor {
        dtype: DT_INT32
        tensor_shape {
        }
        int_val: 1
      }
    }
  }
}
node {
  name: "save/ShardedFilename/shard"
  op: "Const"
  attr {
    key: "_output_shapes"
    value {
      list {
        shape {
        }
      }
    }
  }
  attr {
    key: "dtype"
    value {
      type: DT_INT32
    }
  }
  attr {
    key: "value"
    value {
      tensor {
        dtype: DT_INT32
        tensor_shape {
        }
        int_val: 0
      }
    }
  }
}
node {
  name: "save/ShardedFilename"
  op: "ShardedFilename"
  input: "save/Const"
  input: "save/ShardedFilename/shard"
  input: "save/num_shards"
  attr {
    key: "_output_shapes"
    value {
      list {
        shape {
        }
      }
    }
  }
}
node {
  name: "save/save/tensor_names"
  op: "Const"
  attr {
    key: "_output_shapes"
    value {
      list {
        shape {
          dim {
            size: 21
          }
        }
      }
    }
  }
  attr {
    key: "dtype"
    value {
      type: DT_STRING
    }
  }
  attr {
    key: "value"
    value {
      tensor {
        dtype: DT_STRING
        tensor_shape {
          dim {
            size: 21
          }
        }
        string_val: "beta1_power"
        string_val: "beta2_power"
        string_val: "global_step"
        string_val: "linear/bathroom/weight"
        string_val: "linear/bathroom/weight/Adam"
        string_val: "linear/bathroom/weight/Adam_1"
        string_val: "linear/bedroom/weight"
        string_val: "linear/bedroom/weight/Adam"
        string_val: "linear/bedroom/weight/Adam_1"
        string_val: "linear/bias_weight"
        string_val: "linear/bias_weight/Adam"
        string_val: "linear/bias_weight/Adam_1"
        string_val: "linear/property_type/weights"
        string_val: "linear/property_type/weights/Adam"
        string_val: "linear/property_type/weights/Adam_1"
        string_val: "linear/size_bucketized/weights"
        string_val: "linear/size_bucketized/weights/Adam"
        string_val: "linear/size_bucketized/weights/Adam_1"
        string_val: "linear/zipcode/weights"
        string_val: "linear/zipcode/weights/Adam"
        string_val: "linear/zipcode/weights/Adam_1"
      }
    }
  }
}
node {
  name: "save/save/shapes_and_slices"
  op: "Const"
  attr {
    key: "_output_shapes"
    value {
      list {
        shape {
          dim {
            size: 21
          }
        }
      }
    }
  }
  attr {
    key: "dtype"
    value {
      type: DT_STRING
    }
  }
  attr {
    key: "value"
    value {
      tensor {
        dtype: DT_STRING
        tensor_shape {
          dim {
            size: 21
          }
        }
        string_val: ""
        string_val: ""
        string_val: ""
        string_val: "1 1 0,1:0,1"
        string_val: "1 1 0,1:0,1"
        string_val: "1 1 0,1:0,1"
        string_val: "1 1 0,1:0,1"
        string_val: "1 1 0,1:0,1"
        string_val: "1 1 0,1:0,1"
        string_val: "1 0,1"
        string_val: "1 0,1"
        string_val: "1 0,1"
        string_val: "100 1 0,100:0,1"
        string_val: "100 1 0,100:0,1"
        string_val: "100 1 0,100:0,1"
        string_val: "31 1 0,31:0,1"
        string_val: "31 1 0,31:0,1"
        string_val: "31 1 0,31:0,1"
        string_val: "1000 1 0,1000:0,1"
        string_val: "1000 1 0,1000:0,1"
        string_val: "1000 1 0,1000:0,1"
      }
    }
  }
}
node {
  name: "save/save"
  op: "SaveSlices"
  input: "save/ShardedFilename"
  input: "save/save/tensor_names"
  input: "save/save/shapes_and_slices"
  input: "beta1_power"
  input: "beta2_power"
  input: "global_step"
  input: "linear/bathroom/weight/part_0/read"
  input: "linear/bathroom/weight/part_0/Adam/read"
  input: "linear/bathroom/weight/part_0/Adam_1/read"
  input: "linear/bedroom/weight/part_0/read"
  input: "linear/bedroom/weight/part_0/Adam/read"
  input: "linear/bedroom/weight/part_0/Adam_1/read"
  input: "linear/bias_weight/part_0/read"
  input: "linear/bias_weight/part_0/Adam/read"
  input: "linear/bias_weight/part_0/Adam_1/read"
  input: "linear/property_type/weights/part_0/read"
  input: "linear/property_type/weights/part_0/Adam/read"
  input: "linear/property_type/weights/part_0/Adam_1/read"
  input: "linear/size_bucketized/weights/part_0/read"
  input: "linear/size_bucketized/weights/part_0/Adam/read"
  input: "linear/size_bucketized/weights/part_0/Adam_1/read"
  input: "linear/zipcode/weights/part_0/read"
  input: "linear/zipcode/weights/part_0/Adam/read"
  input: "linear/zipcode/weights/part_0/Adam_1/read"
  attr {
    key: "T"
    value {
      list {
        type: DT_FLOAT
        type: DT_FLOAT
        type: DT_INT64
        type: DT_FLOAT
        type: DT_FLOAT
        type: DT_FLOAT
        type: DT_FLOAT
        type: DT_FLOAT
        type: DT_FLOAT
        type: DT_FLOAT
        type: DT_FLOAT
        type: DT_FLOAT
        type: DT_FLOAT
        type: DT_FLOAT
        type: DT_FLOAT
        type: DT_FLOAT
        type: DT_FLOAT
        type: DT_FLOAT
        type: DT_FLOAT
        type: DT_FLOAT
        type: DT_FLOAT
      }
    }
  }
}
node {
  name: "save/control_dependency"
  op: "Identity"
  input: "save/ShardedFilename"
  input: "^save/save"
  attr {
    key: "T"
    value {
      type: DT_STRING
    }
  }
  attr {
    key: "_class"
    value {
      list {
        s: "loc:@save/ShardedFilename"
      }
    }
  }
  attr {
    key: "_output_shapes"
    value {
      list {
        shape {
        }
      }
    }
  }
}
node {
  name: "save/ShardedFilespec"
  op: "ShardedFilespec"
  input: "save/Const"
  input: "save/num_shards"
  input: "^save/control_dependency"
  attr {
    key: "_output_shapes"
    value {
      list {
        shape {
        }
      }
    }
  }
}
node {
  name: "save/RestoreV2/tensor_names"
  op: "Const"
  attr {
    key: "_output_shapes"
    value {
      list {
        shape {
          dim {
            size: 1
          }
        }
      }
    }
  }
  attr {
    key: "dtype"
    value {
      type: DT_STRING
    }
  }
  attr {
    key: "value"
    value {
      tensor {
        dtype: DT_STRING
        tensor_shape {
          dim {
            size: 1
          }
        }
        string_val: "beta1_power"
      }
    }
  }
}
node {
  name: "save/RestoreV2/shape_and_slices"
  op: "Const"
  attr {
    key: "_output_shapes"
    value {
      list {
        shape {
          dim {
            size: 1
          }
        }
      }
    }
  }
  attr {
    key: "dtype"
    value {
      type: DT_STRING
    }
  }
  attr {
    key: "value"
    value {
      tensor {
        dtype: DT_STRING
        tensor_shape {
          dim {
            size: 1
          }
        }
        string_val: ""
      }
    }
  }
}
node {
  name: "save/RestoreV2"
  op: "RestoreV2"
  input: "save/Const"
  input: "save/RestoreV2/tensor_names"
  input: "save/RestoreV2/shape_and_slices"
  attr {
    key: "_output_shapes"
    value {
      list {
        shape {
          unknown_rank: true
        }
      }
    }
  }
  attr {
    key: "dtypes"
    value {
      list {
        type: DT_FLOAT
      }
    }
  }
}
node {
  name: "save/Assign"
  op: "Assign"
  input: "beta1_power"
  input: "save/RestoreV2"
  attr {
    key: "T"
    value {
      type: DT_FLOAT
    }
  }
  attr {
    key: "_class"
    value {
      list {
        s: "loc:@linear/size_bucketized/weights/part_0"
      }
    }
  }
  attr {
    key: "_output_shapes"
    value {
      list {
        shape {
        }
      }
    }
  }
  attr {
    key: "use_locking"
    value {
      b: true
    }
  }
  attr {
    key: "validate_shape"
    value {
      b: true
    }
  }
}
node {
  name: "save/RestoreV2_1/tensor_names"
  op: "Const"
  attr {
    key: "_output_shapes"
    value {
      list {
        shape {
          dim {
            size: 1
          }
        }
      }
    }
  }
  attr {
    key: "dtype"
    value {
      type: DT_STRING
    }
  }
  attr {
    key: "value"
    value {
      tensor {
        dtype: DT_STRING
        tensor_shape {
          dim {
            size: 1
          }
        }
        string_val: "beta2_power"
      }
    }
  }
}
node {
  name: "save/RestoreV2_1/shape_and_slices"
  op: "Const"
  attr {
    key: "_output_shapes"
    value {
      list {
        shape {
          dim {
            size: 1
          }
        }
      }
    }
  }
  attr {
    key: "dtype"
    value {
      type: DT_STRING
    }
  }
  attr {
    key: "value"
    value {
      tensor {
        dtype: DT_STRING
        tensor_shape {
          dim {
            size: 1
          }
        }
        string_val: ""
      }
    }
  }
}
node {
  name: "save/RestoreV2_1"
  op: "RestoreV2"
  input: "save/Const"
  input: "save/RestoreV2_1/tensor_names"
  input: "save/RestoreV2_1/shape_and_slices"
  attr {
    key: "_output_shapes"
    value {
      list {
        shape {
          unknown_rank: true
        }
      }
    }
  }
  attr {
    key: "dtypes"
    value {
      list {
        type: DT_FLOAT
      }
    }
  }
}
node {
  name: "save/Assign_1"
  op: "Assign"
  input: "beta2_power"
  input: "save/RestoreV2_1"
  attr {
    key: "T"
    value {
      type: DT_FLOAT
    }
  }
  attr {
    key: "_class"
    value {
      list {
        s: "loc:@linear/size_bucketized/weights/part_0"
      }
    }
  }
  attr {
    key: "_output_shapes"
    value {
      list {
        shape {
        }
      }
    }
  }
  attr {
    key: "use_locking"
    value {
      b: true
    }
  }
  attr {
    key: "validate_shape"
    value {
      b: true
    }
  }
}
node {
  name: "save/RestoreV2_2/tensor_names"
  op: "Const"
  attr {
    key: "_output_shapes"
    value {
      list {
        shape {
          dim {
            size: 1
          }
        }
      }
    }
  }
  attr {
    key: "dtype"
    value {
      type: DT_STRING
    }
  }
  attr {
    key: "value"
    value {
      tensor {
        dtype: DT_STRING
        tensor_shape {
          dim {
            size: 1
          }
        }
        string_val: "global_step"
      }
    }
  }
}
node {
  name: "save/RestoreV2_2/shape_and_slices"
  op: "Const"
  attr {
    key: "_output_shapes"
    value {
      list {
        shape {
          dim {
            size: 1
          }
        }
      }
    }
  }
  attr {
    key: "dtype"
    value {
      type: DT_STRING
    }
  }
  attr {
    key: "value"
    value {
      tensor {
        dtype: DT_STRING
        tensor_shape {
          dim {
            size: 1
          }
        }
        string_val: ""
      }
    }
  }
}
node {
  name: "save/RestoreV2_2"
  op: "RestoreV2"
  input: "save/Const"
  input: "save/RestoreV2_2/tensor_names"
  input: "save/RestoreV2_2/shape_and_slices"
  attr {
    key: "_output_shapes"
    value {
      list {
        shape {
          unknown_rank: true
        }
      }
    }
  }
  attr {
    key: "dtypes"
    value {
      list {
        type: DT_INT64
      }
    }
  }
}
node {
  name: "save/Assign_2"
  op: "Assign"
  input: "global_step"
  input: "save/RestoreV2_2"
  attr {
    key: "T"
    value {
      type: DT_INT64
    }
  }
  attr {
    key: "_class"
    value {
      list {
        s: "loc:@global_step"
      }
    }
  }
  attr {
    key: "_output_shapes"
    value {
      list {
        shape {
        }
      }
    }
  }
  attr {
    key: "use_locking"
    value {
      b: true
    }
  }
  attr {
    key: "validate_shape"
    value {
      b: true
    }
  }
}
node {
  name: "save/RestoreV2_3/tensor_names"
  op: "Const"
  attr {
    key: "_output_shapes"
    value {
      list {
        shape {
          dim {
            size: 1
          }
        }
      }
    }
  }
  attr {
    key: "dtype"
    value {
      type: DT_STRING
    }
  }
  attr {
    key: "value"
    value {
      tensor {
        dtype: DT_STRING
        tensor_shape {
          dim {
            size: 1
          }
        }
        string_val: "linear/bathroom/weight"
      }
    }
  }
}
node {
  name: "save/RestoreV2_3/shape_and_slices"
  op: "Const"
  attr {
    key: "_output_shapes"
    value {
      list {
        shape {
          dim {
            size: 1
          }
        }
      }
    }
  }
  attr {
    key: "dtype"
    value {
      type: DT_STRING
    }
  }
  attr {
    key: "value"
    value {
      tensor {
        dtype: DT_STRING
        tensor_shape {
          dim {
            size: 1
          }
        }
        string_val: "1 1 0,1:0,1"
      }
    }
  }
}
node {
  name: "save/RestoreV2_3"
  op: "RestoreV2"
  input: "save/Const"
  input: "save/RestoreV2_3/tensor_names"
  input: "save/RestoreV2_3/shape_and_slices"
  attr {
    key: "_output_shapes"
    value {
      list {
        shape {
          unknown_rank: true
        }
      }
    }
  }
  attr {
    key: "dtypes"
    value {
      list {
        type: DT_FLOAT
      }
    }
  }
}
node {
  name: "save/Assign_3"
  op: "Assign"
  input: "linear/bathroom/weight/part_0"
  input: "save/RestoreV2_3"
  attr {
    key: "T"
    value {
      type: DT_FLOAT
    }
  }
  attr {
    key: "_class"
    value {
      list {
        s: "loc:@linear/bathroom/weight/part_0"
      }
    }
  }
  attr {
    key: "_output_shapes"
    value {
      list {
        shape {
          dim {
            size: 1
          }
          dim {
            size: 1
          }
        }
      }
    }
  }
  attr {
    key: "use_locking"
    value {
      b: true
    }
  }
  attr {
    key: "validate_shape"
    value {
      b: true
    }
  }
}
node {
  name: "save/RestoreV2_4/tensor_names"
  op: "Const"
  attr {
    key: "_output_shapes"
    value {
      list {
        shape {
          dim {
            size: 1
          }
        }
      }
    }
  }
  attr {
    key: "dtype"
    value {
      type: DT_STRING
    }
  }
  attr {
    key: "value"
    value {
      tensor {
        dtype: DT_STRING
        tensor_shape {
          dim {
            size: 1
          }
        }
        string_val: "linear/bathroom/weight/Adam"
      }
    }
  }
}
node {
  name: "save/RestoreV2_4/shape_and_slices"
  op: "Const"
  attr {
    key: "_output_shapes"
    value {
      list {
        shape {
          dim {
            size: 1
          }
        }
      }
    }
  }
  attr {
    key: "dtype"
    value {
      type: DT_STRING
    }
  }
  attr {
    key: "value"
    value {
      tensor {
        dtype: DT_STRING
        tensor_shape {
          dim {
            size: 1
          }
        }
        string_val: "1 1 0,1:0,1"
      }
    }
  }
}
node {
  name: "save/RestoreV2_4"
  op: "RestoreV2"
  input: "save/Const"
  input: "save/RestoreV2_4/tensor_names"
  input: "save/RestoreV2_4/shape_and_slices"
  attr {
    key: "_output_shapes"
    value {
      list {
        shape {
          unknown_rank: true
        }
      }
    }
  }
  attr {
    key: "dtypes"
    value {
      list {
        type: DT_FLOAT
      }
    }
  }
}
node {
  name: "save/Assign_4"
  op: "Assign"
  input: "linear/bathroom/weight/part_0/Adam"
  input: "save/RestoreV2_4"
  attr {
    key: "T"
    value {
      type: DT_FLOAT
    }
  }
  attr {
    key: "_class"
    value {
      list {
        s: "loc:@linear/bathroom/weight/part_0"
      }
    }
  }
  attr {
    key: "_output_shapes"
    value {
      list {
        shape {
          dim {
            size: 1
          }
          dim {
            size: 1
          }
        }
      }
    }
  }
  attr {
    key: "use_locking"
    value {
      b: true
    }
  }
  attr {
    key: "validate_shape"
    value {
      b: true
    }
  }
}
node {
  name: "save/RestoreV2_5/tensor_names"
  op: "Const"
  attr {
    key: "_output_shapes"
    value {
      list {
        shape {
          dim {
            size: 1
          }
        }
      }
    }
  }
  attr {
    key: "dtype"
    value {
      type: DT_STRING
    }
  }
  attr {
    key: "value"
    value {
      tensor {
        dtype: DT_STRING
        tensor_shape {
          dim {
            size: 1
          }
        }
        string_val: "linear/bathroom/weight/Adam_1"
      }
    }
  }
}
node {
  name: "save/RestoreV2_5/shape_and_slices"
  op: "Const"
  attr {
    key: "_output_shapes"
    value {
      list {
        shape {
          dim {
            size: 1
          }
        }
      }
    }
  }
  attr {
    key: "dtype"
    value {
      type: DT_STRING
    }
  }
  attr {
    key: "value"
    value {
      tensor {
        dtype: DT_STRING
        tensor_shape {
          dim {
            size: 1
          }
        }
        string_val: "1 1 0,1:0,1"
      }
    }
  }
}
node {
  name: "save/RestoreV2_5"
  op: "RestoreV2"
  input: "save/Const"
  input: "save/RestoreV2_5/tensor_names"
  input: "save/RestoreV2_5/shape_and_slices"
  attr {
    key: "_output_shapes"
    value {
      list {
        shape {
          unknown_rank: true
        }
      }
    }
  }
  attr {
    key: "dtypes"
    value {
      list {
        type: DT_FLOAT
      }
    }
  }
}
node {
  name: "save/Assign_5"
  op: "Assign"
  input: "linear/bathroom/weight/part_0/Adam_1"
  input: "save/RestoreV2_5"
  attr {
    key: "T"
    value {
      type: DT_FLOAT
    }
  }
  attr {
    key: "_class"
    value {
      list {
        s: "loc:@linear/bathroom/weight/part_0"
      }
    }
  }
  attr {
    key: "_output_shapes"
    value {
      list {
        shape {
          dim {
            size: 1
          }
          dim {
            size: 1
          }
        }
      }
    }
  }
  attr {
    key: "use_locking"
    value {
      b: true
    }
  }
  attr {
    key: "validate_shape"
    value {
      b: true
    }
  }
}
node {
  name: "save/RestoreV2_6/tensor_names"
  op: "Const"
  attr {
    key: "_output_shapes"
    value {
      list {
        shape {
          dim {
            size: 1
          }
        }
      }
    }
  }
  attr {
    key: "dtype"
    value {
      type: DT_STRING
    }
  }
  attr {
    key: "value"
    value {
      tensor {
        dtype: DT_STRING
        tensor_shape {
          dim {
            size: 1
          }
        }
        string_val: "linear/bedroom/weight"
      }
    }
  }
}
node {
  name: "save/RestoreV2_6/shape_and_slices"
  op: "Const"
  attr {
    key: "_output_shapes"
    value {
      list {
        shape {
          dim {
            size: 1
          }
        }
      }
    }
  }
  attr {
    key: "dtype"
    value {
      type: DT_STRING
    }
  }
  attr {
    key: "value"
    value {
      tensor {
        dtype: DT_STRING
        tensor_shape {
          dim {
            size: 1
          }
        }
        string_val: "1 1 0,1:0,1"
      }
    }
  }
}
node {
  name: "save/RestoreV2_6"
  op: "RestoreV2"
  input: "save/Const"
  input: "save/RestoreV2_6/tensor_names"
  input: "save/RestoreV2_6/shape_and_slices"
  attr {
    key: "_output_shapes"
    value {
      list {
        shape {
          unknown_rank: true
        }
      }
    }
  }
  attr {
    key: "dtypes"
    value {
      list {
        type: DT_FLOAT
      }
    }
  }
}
node {
  name: "save/Assign_6"
  op: "Assign"
  input: "linear/bedroom/weight/part_0"
  input: "save/RestoreV2_6"
  attr {
    key: "T"
    value {
      type: DT_FLOAT
    }
  }
  attr {
    key: "_class"
    value {
      list {
        s: "loc:@linear/bedroom/weight/part_0"
      }
    }
  }
  attr {
    key: "_output_shapes"
    value {
      list {
        shape {
          dim {
            size: 1
          }
          dim {
            size: 1
          }
        }
      }
    }
  }
  attr {
    key: "use_locking"
    value {
      b: true
    }
  }
  attr {
    key: "validate_shape"
    value {
      b: true
    }
  }
}
node {
  name: "save/RestoreV2_7/tensor_names"
  op: "Const"
  attr {
    key: "_output_shapes"
    value {
      list {
        shape {
          dim {
            size: 1
          }
        }
      }
    }
  }
  attr {
    key: "dtype"
    value {
      type: DT_STRING
    }
  }
  attr {
    key: "value"
    value {
      tensor {
        dtype: DT_STRING
        tensor_shape {
          dim {
            size: 1
          }
        }
        string_val: "linear/bedroom/weight/Adam"
      }
    }
  }
}
node {
  name: "save/RestoreV2_7/shape_and_slices"
  op: "Const"
  attr {
    key: "_output_shapes"
    value {
      list {
        shape {
          dim {
            size: 1
          }
        }
      }
    }
  }
  attr {
    key: "dtype"
    value {
      type: DT_STRING
    }
  }
  attr {
    key: "value"
    value {
      tensor {
        dtype: DT_STRING
        tensor_shape {
          dim {
            size: 1
          }
        }
        string_val: "1 1 0,1:0,1"
      }
    }
  }
}
node {
  name: "save/RestoreV2_7"
  op: "RestoreV2"
  input: "save/Const"
  input: "save/RestoreV2_7/tensor_names"
  input: "save/RestoreV2_7/shape_and_slices"
  attr {
    key: "_output_shapes"
    value {
      list {
        shape {
          unknown_rank: true
        }
      }
    }
  }
  attr {
    key: "dtypes"
    value {
      list {
        type: DT_FLOAT
      }
    }
  }
}
node {
  name: "save/Assign_7"
  op: "Assign"
  input: "linear/bedroom/weight/part_0/Adam"
  input: "save/RestoreV2_7"
  attr {
    key: "T"
    value {
      type: DT_FLOAT
    }
  }
  attr {
    key: "_class"
    value {
      list {
        s: "loc:@linear/bedroom/weight/part_0"
      }
    }
  }
  attr {
    key: "_output_shapes"
    value {
      list {
        shape {
          dim {
            size: 1
          }
          dim {
            size: 1
          }
        }
      }
    }
  }
  attr {
    key: "use_locking"
    value {
      b: true
    }
  }
  attr {
    key: "validate_shape"
    value {
      b: true
    }
  }
}
node {
  name: "save/RestoreV2_8/tensor_names"
  op: "Const"
  attr {
    key: "_output_shapes"
    value {
      list {
        shape {
          dim {
            size: 1
          }
        }
      }
    }
  }
  attr {
    key: "dtype"
    value {
      type: DT_STRING
    }
  }
  attr {
    key: "value"
    value {
      tensor {
        dtype: DT_STRING
        tensor_shape {
          dim {
            size: 1
          }
        }
        string_val: "linear/bedroom/weight/Adam_1"
      }
    }
  }
}
node {
  name: "save/RestoreV2_8/shape_and_slices"
  op: "Const"
  attr {
    key: "_output_shapes"
    value {
      list {
        shape {
          dim {
            size: 1
          }
        }
      }
    }
  }
  attr {
    key: "dtype"
    value {
      type: DT_STRING
    }
  }
  attr {
    key: "value"
    value {
      tensor {
        dtype: DT_STRING
        tensor_shape {
          dim {
            size: 1
          }
        }
        string_val: "1 1 0,1:0,1"
      }
    }
  }
}
node {
  name: "save/RestoreV2_8"
  op: "RestoreV2"
  input: "save/Const"
  input: "save/RestoreV2_8/tensor_names"
  input: "save/RestoreV2_8/shape_and_slices"
  attr {
    key: "_output_shapes"
    value {
      list {
        shape {
          unknown_rank: true
        }
      }
    }
  }
  attr {
    key: "dtypes"
    value {
      list {
        type: DT_FLOAT
      }
    }
  }
}
node {
  name: "save/Assign_8"
  op: "Assign"
  input: "linear/bedroom/weight/part_0/Adam_1"
  input: "save/RestoreV2_8"
  attr {
    key: "T"
    value {
      type: DT_FLOAT
    }
  }
  attr {
    key: "_class"
    value {
      list {
        s: "loc:@linear/bedroom/weight/part_0"
      }
    }
  }
  attr {
    key: "_output_shapes"
    value {
      list {
        shape {
          dim {
            size: 1
          }
          dim {
            size: 1
          }
        }
      }
    }
  }
  attr {
    key: "use_locking"
    value {
      b: true
    }
  }
  attr {
    key: "validate_shape"
    value {
      b: true
    }
  }
}
node {
  name: "save/RestoreV2_9/tensor_names"
  op: "Const"
  attr {
    key: "_output_shapes"
    value {
      list {
        shape {
          dim {
            size: 1
          }
        }
      }
    }
  }
  attr {
    key: "dtype"
    value {
      type: DT_STRING
    }
  }
  attr {
    key: "value"
    value {
      tensor {
        dtype: DT_STRING
        tensor_shape {
          dim {
            size: 1
          }
        }
        string_val: "linear/bias_weight"
      }
    }
  }
}
node {
  name: "save/RestoreV2_9/shape_and_slices"
  op: "Const"
  attr {
    key: "_output_shapes"
    value {
      list {
        shape {
          dim {
            size: 1
          }
        }
      }
    }
  }
  attr {
    key: "dtype"
    value {
      type: DT_STRING
    }
  }
  attr {
    key: "value"
    value {
      tensor {
        dtype: DT_STRING
        tensor_shape {
          dim {
            size: 1
          }
        }
        string_val: "1 0,1"
      }
    }
  }
}
node {
  name: "save/RestoreV2_9"
  op: "RestoreV2"
  input: "save/Const"
  input: "save/RestoreV2_9/tensor_names"
  input: "save/RestoreV2_9/shape_and_slices"
  attr {
    key: "_output_shapes"
    value {
      list {
        shape {
          unknown_rank: true
        }
      }
    }
  }
  attr {
    key: "dtypes"
    value {
      list {
        type: DT_FLOAT
      }
    }
  }
}
node {
  name: "save/Assign_9"
  op: "Assign"
  input: "linear/bias_weight/part_0"
  input: "save/RestoreV2_9"
  attr {
    key: "T"
    value {
      type: DT_FLOAT
    }
  }
  attr {
    key: "_class"
    value {
      list {
        s: "loc:@linear/bias_weight/part_0"
      }
    }
  }
  attr {
    key: "_output_shapes"
    value {
      list {
        shape {
          dim {
            size: 1
          }
        }
      }
    }
  }
  attr {
    key: "use_locking"
    value {
      b: true
    }
  }
  attr {
    key: "validate_shape"
    value {
      b: true
    }
  }
}
node {
  name: "save/RestoreV2_10/tensor_names"
  op: "Const"
  attr {
    key: "_output_shapes"
    value {
      list {
        shape {
          dim {
            size: 1
          }
        }
      }
    }
  }
  attr {
    key: "dtype"
    value {
      type: DT_STRING
    }
  }
  attr {
    key: "value"
    value {
      tensor {
        dtype: DT_STRING
        tensor_shape {
          dim {
            size: 1
          }
        }
        string_val: "linear/bias_weight/Adam"
      }
    }
  }
}
node {
  name: "save/RestoreV2_10/shape_and_slices"
  op: "Const"
  attr {
    key: "_output_shapes"
    value {
      list {
        shape {
          dim {
            size: 1
          }
        }
      }
    }
  }
  attr {
    key: "dtype"
    value {
      type: DT_STRING
    }
  }
  attr {
    key: "value"
    value {
      tensor {
        dtype: DT_STRING
        tensor_shape {
          dim {
            size: 1
          }
        }
        string_val: "1 0,1"
      }
    }
  }
}
node {
  name: "save/RestoreV2_10"
  op: "RestoreV2"
  input: "save/Const"
  input: "save/RestoreV2_10/tensor_names"
  input: "save/RestoreV2_10/shape_and_slices"
  attr {
    key: "_output_shapes"
    value {
      list {
        shape {
          unknown_rank: true
        }
      }
    }
  }
  attr {
    key: "dtypes"
    value {
      list {
        type: DT_FLOAT
      }
    }
  }
}
node {
  name: "save/Assign_10"
  op: "Assign"
  input: "linear/bias_weight/part_0/Adam"
  input: "save/RestoreV2_10"
  attr {
    key: "T"
    value {
      type: DT_FLOAT
    }
  }
  attr {
    key: "_class"
    value {
      list {
        s: "loc:@linear/bias_weight/part_0"
      }
    }
  }
  attr {
    key: "_output_shapes"
    value {
      list {
        shape {
          dim {
            size: 1
          }
        }
      }
    }
  }
  attr {
    key: "use_locking"
    value {
      b: true
    }
  }
  attr {
    key: "validate_shape"
    value {
      b: true
    }
  }
}
node {
  name: "save/RestoreV2_11/tensor_names"
  op: "Const"
  attr {
    key: "_output_shapes"
    value {
      list {
        shape {
          dim {
            size: 1
          }
        }
      }
    }
  }
  attr {
    key: "dtype"
    value {
      type: DT_STRING
    }
  }
  attr {
    key: "value"
    value {
      tensor {
        dtype: DT_STRING
        tensor_shape {
          dim {
            size: 1
          }
        }
        string_val: "linear/bias_weight/Adam_1"
      }
    }
  }
}
node {
  name: "save/RestoreV2_11/shape_and_slices"
  op: "Const"
  attr {
    key: "_output_shapes"
    value {
      list {
        shape {
          dim {
            size: 1
          }
        }
      }
    }
  }
  attr {
    key: "dtype"
    value {
      type: DT_STRING
    }
  }
  attr {
    key: "value"
    value {
      tensor {
        dtype: DT_STRING
        tensor_shape {
          dim {
            size: 1
          }
        }
        string_val: "1 0,1"
      }
    }
  }
}
node {
  name: "save/RestoreV2_11"
  op: "RestoreV2"
  input: "save/Const"
  input: "save/RestoreV2_11/tensor_names"
  input: "save/RestoreV2_11/shape_and_slices"
  attr {
    key: "_output_shapes"
    value {
      list {
        shape {
          unknown_rank: true
        }
      }
    }
  }
  attr {
    key: "dtypes"
    value {
      list {
        type: DT_FLOAT
      }
    }
  }
}
node {
  name: "save/Assign_11"
  op: "Assign"
  input: "linear/bias_weight/part_0/Adam_1"
  input: "save/RestoreV2_11"
  attr {
    key: "T"
    value {
      type: DT_FLOAT
    }
  }
  attr {
    key: "_class"
    value {
      list {
        s: "loc:@linear/bias_weight/part_0"
      }
    }
  }
  attr {
    key: "_output_shapes"
    value {
      list {
        shape {
          dim {
            size: 1
          }
        }
      }
    }
  }
  attr {
    key: "use_locking"
    value {
      b: true
    }
  }
  attr {
    key: "validate_shape"
    value {
      b: true
    }
  }
}
node {
  name: "save/RestoreV2_12/tensor_names"
  op: "Const"
  attr {
    key: "_output_shapes"
    value {
      list {
        shape {
          dim {
            size: 1
          }
        }
      }
    }
  }
  attr {
    key: "dtype"
    value {
      type: DT_STRING
    }
  }
  attr {
    key: "value"
    value {
      tensor {
        dtype: DT_STRING
        tensor_shape {
          dim {
            size: 1
          }
        }
        string_val: "linear/property_type/weights"
      }
    }
  }
}
node {
  name: "save/RestoreV2_12/shape_and_slices"
  op: "Const"
  attr {
    key: "_output_shapes"
    value {
      list {
        shape {
          dim {
            size: 1
          }
        }
      }
    }
  }
  attr {
    key: "dtype"
    value {
      type: DT_STRING
    }
  }
  attr {
    key: "value"
    value {
      tensor {
        dtype: DT_STRING
        tensor_shape {
          dim {
            size: 1
          }
        }
        string_val: "100 1 0,100:0,1"
      }
    }
  }
}
node {
  name: "save/RestoreV2_12"
  op: "RestoreV2"
  input: "save/Const"
  input: "save/RestoreV2_12/tensor_names"
  input: "save/RestoreV2_12/shape_and_slices"
  attr {
    key: "_output_shapes"
    value {
      list {
        shape {
          unknown_rank: true
        }
      }
    }
  }
  attr {
    key: "dtypes"
    value {
      list {
        type: DT_FLOAT
      }
    }
  }
}
node {
  name: "save/Assign_12"
  op: "Assign"
  input: "linear/property_type/weights/part_0"
  input: "save/RestoreV2_12"
  attr {
    key: "T"
    value {
      type: DT_FLOAT
    }
  }
  attr {
    key: "_class"
    value {
      list {
        s: "loc:@linear/property_type/weights/part_0"
      }
    }
  }
  attr {
    key: "_output_shapes"
    value {
      list {
        shape {
          dim {
            size: 100
          }
          dim {
            size: 1
          }
        }
      }
    }
  }
  attr {
    key: "use_locking"
    value {
      b: true
    }
  }
  attr {
    key: "validate_shape"
    value {
      b: true
    }
  }
}
node {
  name: "save/RestoreV2_13/tensor_names"
  op: "Const"
  attr {
    key: "_output_shapes"
    value {
      list {
        shape {
          dim {
            size: 1
          }
        }
      }
    }
  }
  attr {
    key: "dtype"
    value {
      type: DT_STRING
    }
  }
  attr {
    key: "value"
    value {
      tensor {
        dtype: DT_STRING
        tensor_shape {
          dim {
            size: 1
          }
        }
        string_val: "linear/property_type/weights/Adam"
      }
    }
  }
}
node {
  name: "save/RestoreV2_13/shape_and_slices"
  op: "Const"
  attr {
    key: "_output_shapes"
    value {
      list {
        shape {
          dim {
            size: 1
          }
        }
      }
    }
  }
  attr {
    key: "dtype"
    value {
      type: DT_STRING
    }
  }
  attr {
    key: "value"
    value {
      tensor {
        dtype: DT_STRING
        tensor_shape {
          dim {
            size: 1
          }
        }
        string_val: "100 1 0,100:0,1"
      }
    }
  }
}
node {
  name: "save/RestoreV2_13"
  op: "RestoreV2"
  input: "save/Const"
  input: "save/RestoreV2_13/tensor_names"
  input: "save/RestoreV2_13/shape_and_slices"
  attr {
    key: "_output_shapes"
    value {
      list {
        shape {
          unknown_rank: true
        }
      }
    }
  }
  attr {
    key: "dtypes"
    value {
      list {
        type: DT_FLOAT
      }
    }
  }
}
node {
  name: "save/Assign_13"
  op: "Assign"
  input: "linear/property_type/weights/part_0/Adam"
  input: "save/RestoreV2_13"
  attr {
    key: "T"
    value {
      type: DT_FLOAT
    }
  }
  attr {
    key: "_class"
    value {
      list {
        s: "loc:@linear/property_type/weights/part_0"
      }
    }
  }
  attr {
    key: "_output_shapes"
    value {
      list {
        shape {
          dim {
            size: 100
          }
          dim {
            size: 1
          }
        }
      }
    }
  }
  attr {
    key: "use_locking"
    value {
      b: true
    }
  }
  attr {
    key: "validate_shape"
    value {
      b: true
    }
  }
}
node {
  name: "save/RestoreV2_14/tensor_names"
  op: "Const"
  attr {
    key: "_output_shapes"
    value {
      list {
        shape {
          dim {
            size: 1
          }
        }
      }
    }
  }
  attr {
    key: "dtype"
    value {
      type: DT_STRING
    }
  }
  attr {
    key: "value"
    value {
      tensor {
        dtype: DT_STRING
        tensor_shape {
          dim {
            size: 1
          }
        }
        string_val: "linear/property_type/weights/Adam_1"
      }
    }
  }
}
node {
  name: "save/RestoreV2_14/shape_and_slices"
  op: "Const"
  attr {
    key: "_output_shapes"
    value {
      list {
        shape {
          dim {
            size: 1
          }
        }
      }
    }
  }
  attr {
    key: "dtype"
    value {
      type: DT_STRING
    }
  }
  attr {
    key: "value"
    value {
      tensor {
        dtype: DT_STRING
        tensor_shape {
          dim {
            size: 1
          }
        }
        string_val: "100 1 0,100:0,1"
      }
    }
  }
}
node {
  name: "save/RestoreV2_14"
  op: "RestoreV2"
  input: "save/Const"
  input: "save/RestoreV2_14/tensor_names"
  input: "save/RestoreV2_14/shape_and_slices"
  attr {
    key: "_output_shapes"
    value {
      list {
        shape {
          unknown_rank: true
        }
      }
    }
  }
  attr {
    key: "dtypes"
    value {
      list {
        type: DT_FLOAT
      }
    }
  }
}
node {
  name: "save/Assign_14"
  op: "Assign"
  input: "linear/property_type/weights/part_0/Adam_1"
  input: "save/RestoreV2_14"
  attr {
    key: "T"
    value {
      type: DT_FLOAT
    }
  }
  attr {
    key: "_class"
    value {
      list {
        s: "loc:@linear/property_type/weights/part_0"
      }
    }
  }
  attr {
    key: "_output_shapes"
    value {
      list {
        shape {
          dim {
            size: 100
          }
          dim {
            size: 1
          }
        }
      }
    }
  }
  attr {
    key: "use_locking"
    value {
      b: true
    }
  }
  attr {
    key: "validate_shape"
    value {
      b: true
    }
  }
}
node {
  name: "save/RestoreV2_15/tensor_names"
  op: "Const"
  attr {
    key: "_output_shapes"
    value {
      list {
        shape {
          dim {
            size: 1
          }
        }
      }
    }
  }
  attr {
    key: "dtype"
    value {
      type: DT_STRING
    }
  }
  attr {
    key: "value"
    value {
      tensor {
        dtype: DT_STRING
        tensor_shape {
          dim {
            size: 1
          }
        }
        string_val: "linear/size_bucketized/weights"
      }
    }
  }
}
node {
  name: "save/RestoreV2_15/shape_and_slices"
  op: "Const"
  attr {
    key: "_output_shapes"
    value {
      list {
        shape {
          dim {
            size: 1
          }
        }
      }
    }
  }
  attr {
    key: "dtype"
    value {
      type: DT_STRING
    }
  }
  attr {
    key: "value"
    value {
      tensor {
        dtype: DT_STRING
        tensor_shape {
          dim {
            size: 1
          }
        }
        string_val: "31 1 0,31:0,1"
      }
    }
  }
}
node {
  name: "save/RestoreV2_15"
  op: "RestoreV2"
  input: "save/Const"
  input: "save/RestoreV2_15/tensor_names"
  input: "save/RestoreV2_15/shape_and_slices"
  attr {
    key: "_output_shapes"
    value {
      list {
        shape {
          unknown_rank: true
        }
      }
    }
  }
  attr {
    key: "dtypes"
    value {
      list {
        type: DT_FLOAT
      }
    }
  }
}
node {
  name: "save/Assign_15"
  op: "Assign"
  input: "linear/size_bucketized/weights/part_0"
  input: "save/RestoreV2_15"
  attr {
    key: "T"
    value {
      type: DT_FLOAT
    }
  }
  attr {
    key: "_class"
    value {
      list {
        s: "loc:@linear/size_bucketized/weights/part_0"
      }
    }
  }
  attr {
    key: "_output_shapes"
    value {
      list {
        shape {
          dim {
            size: 31
          }
          dim {
            size: 1
          }
        }
      }
    }
  }
  attr {
    key: "use_locking"
    value {
      b: true
    }
  }
  attr {
    key: "validate_shape"
    value {
      b: true
    }
  }
}
node {
  name: "save/RestoreV2_16/tensor_names"
  op: "Const"
  attr {
    key: "_output_shapes"
    value {
      list {
        shape {
          dim {
            size: 1
          }
        }
      }
    }
  }
  attr {
    key: "dtype"
    value {
      type: DT_STRING
    }
  }
  attr {
    key: "value"
    value {
      tensor {
        dtype: DT_STRING
        tensor_shape {
          dim {
            size: 1
          }
        }
        string_val: "linear/size_bucketized/weights/Adam"
      }
    }
  }
}
node {
  name: "save/RestoreV2_16/shape_and_slices"
  op: "Const"
  attr {
    key: "_output_shapes"
    value {
      list {
        shape {
          dim {
            size: 1
          }
        }
      }
    }
  }
  attr {
    key: "dtype"
    value {
      type: DT_STRING
    }
  }
  attr {
    key: "value"
    value {
      tensor {
        dtype: DT_STRING
        tensor_shape {
          dim {
            size: 1
          }
        }
        string_val: "31 1 0,31:0,1"
      }
    }
  }
}
node {
  name: "save/RestoreV2_16"
  op: "RestoreV2"
  input: "save/Const"
  input: "save/RestoreV2_16/tensor_names"
  input: "save/RestoreV2_16/shape_and_slices"
  attr {
    key: "_output_shapes"
    value {
      list {
        shape {
          unknown_rank: true
        }
      }
    }
  }
  attr {
    key: "dtypes"
    value {
      list {
        type: DT_FLOAT
      }
    }
  }
}
node {
  name: "save/Assign_16"
  op: "Assign"
  input: "linear/size_bucketized/weights/part_0/Adam"
  input: "save/RestoreV2_16"
  attr {
    key: "T"
    value {
      type: DT_FLOAT
    }
  }
  attr {
    key: "_class"
    value {
      list {
        s: "loc:@linear/size_bucketized/weights/part_0"
      }
    }
  }
  attr {
    key: "_output_shapes"
    value {
      list {
        shape {
          dim {
            size: 31
          }
          dim {
            size: 1
          }
        }
      }
    }
  }
  attr {
    key: "use_locking"
    value {
      b: true
    }
  }
  attr {
    key: "validate_shape"
    value {
      b: true
    }
  }
}
node {
  name: "save/RestoreV2_17/tensor_names"
  op: "Const"
  attr {
    key: "_output_shapes"
    value {
      list {
        shape {
          dim {
            size: 1
          }
        }
      }
    }
  }
  attr {
    key: "dtype"
    value {
      type: DT_STRING
    }
  }
  attr {
    key: "value"
    value {
      tensor {
        dtype: DT_STRING
        tensor_shape {
          dim {
            size: 1
          }
        }
        string_val: "linear/size_bucketized/weights/Adam_1"
      }
    }
  }
}
node {
  name: "save/RestoreV2_17/shape_and_slices"
  op: "Const"
  attr {
    key: "_output_shapes"
    value {
      list {
        shape {
          dim {
            size: 1
          }
        }
      }
    }
  }
  attr {
    key: "dtype"
    value {
      type: DT_STRING
    }
  }
  attr {
    key: "value"
    value {
      tensor {
        dtype: DT_STRING
        tensor_shape {
          dim {
            size: 1
          }
        }
        string_val: "31 1 0,31:0,1"
      }
    }
  }
}
node {
  name: "save/RestoreV2_17"
  op: "RestoreV2"
  input: "save/Const"
  input: "save/RestoreV2_17/tensor_names"
  input: "save/RestoreV2_17/shape_and_slices"
  attr {
    key: "_output_shapes"
    value {
      list {
        shape {
          unknown_rank: true
        }
      }
    }
  }
  attr {
    key: "dtypes"
    value {
      list {
        type: DT_FLOAT
      }
    }
  }
}
node {
  name: "save/Assign_17"
  op: "Assign"
  input: "linear/size_bucketized/weights/part_0/Adam_1"
  input: "save/RestoreV2_17"
  attr {
    key: "T"
    value {
      type: DT_FLOAT
    }
  }
  attr {
    key: "_class"
    value {
      list {
        s: "loc:@linear/size_bucketized/weights/part_0"
      }
    }
  }
  attr {
    key: "_output_shapes"
    value {
      list {
        shape {
          dim {
            size: 31
          }
          dim {
            size: 1
          }
        }
      }
    }
  }
  attr {
    key: "use_locking"
    value {
      b: true
    }
  }
  attr {
    key: "validate_shape"
    value {
      b: true
    }
  }
}
node {
  name: "save/RestoreV2_18/tensor_names"
  op: "Const"
  attr {
    key: "_output_shapes"
    value {
      list {
        shape {
          dim {
            size: 1
          }
        }
      }
    }
  }
  attr {
    key: "dtype"
    value {
      type: DT_STRING
    }
  }
  attr {
    key: "value"
    value {
      tensor {
        dtype: DT_STRING
        tensor_shape {
          dim {
            size: 1
          }
        }
        string_val: "linear/zipcode/weights"
      }
    }
  }
}
node {
  name: "save/RestoreV2_18/shape_and_slices"
  op: "Const"
  attr {
    key: "_output_shapes"
    value {
      list {
        shape {
          dim {
            size: 1
          }
        }
      }
    }
  }
  attr {
    key: "dtype"
    value {
      type: DT_STRING
    }
  }
  attr {
    key: "value"
    value {
      tensor {
        dtype: DT_STRING
        tensor_shape {
          dim {
            size: 1
          }
        }
        string_val: "1000 1 0,1000:0,1"
      }
    }
  }
}
node {
  name: "save/RestoreV2_18"
  op: "RestoreV2"
  input: "save/Const"
  input: "save/RestoreV2_18/tensor_names"
  input: "save/RestoreV2_18/shape_and_slices"
  attr {
    key: "_output_shapes"
    value {
      list {
        shape {
          unknown_rank: true
        }
      }
    }
  }
  attr {
    key: "dtypes"
    value {
      list {
        type: DT_FLOAT
      }
    }
  }
}
node {
  name: "save/Assign_18"
  op: "Assign"
  input: "linear/zipcode/weights/part_0"
  input: "save/RestoreV2_18"
  attr {
    key: "T"
    value {
      type: DT_FLOAT
    }
  }
  attr {
    key: "_class"
    value {
      list {
        s: "loc:@linear/zipcode/weights/part_0"
      }
    }
  }
  attr {
    key: "_output_shapes"
    value {
      list {
        shape {
          dim {
            size: 1000
          }
          dim {
            size: 1
          }
        }
      }
    }
  }
  attr {
    key: "use_locking"
    value {
      b: true
    }
  }
  attr {
    key: "validate_shape"
    value {
      b: true
    }
  }
}
node {
  name: "save/RestoreV2_19/tensor_names"
  op: "Const"
  attr {
    key: "_output_shapes"
    value {
      list {
        shape {
          dim {
            size: 1
          }
        }
      }
    }
  }
  attr {
    key: "dtype"
    value {
      type: DT_STRING
    }
  }
  attr {
    key: "value"
    value {
      tensor {
        dtype: DT_STRING
        tensor_shape {
          dim {
            size: 1
          }
        }
        string_val: "linear/zipcode/weights/Adam"
      }
    }
  }
}
node {
  name: "save/RestoreV2_19/shape_and_slices"
  op: "Const"
  attr {
    key: "_output_shapes"
    value {
      list {
        shape {
          dim {
            size: 1
          }
        }
      }
    }
  }
  attr {
    key: "dtype"
    value {
      type: DT_STRING
    }
  }
  attr {
    key: "value"
    value {
      tensor {
        dtype: DT_STRING
        tensor_shape {
          dim {
            size: 1
          }
        }
        string_val: "1000 1 0,1000:0,1"
      }
    }
  }
}
node {
  name: "save/RestoreV2_19"
  op: "RestoreV2"
  input: "save/Const"
  input: "save/RestoreV2_19/tensor_names"
  input: "save/RestoreV2_19/shape_and_slices"
  attr {
    key: "_output_shapes"
    value {
      list {
        shape {
          unknown_rank: true
        }
      }
    }
  }
  attr {
    key: "dtypes"
    value {
      list {
        type: DT_FLOAT
      }
    }
  }
}
node {
  name: "save/Assign_19"
  op: "Assign"
  input: "linear/zipcode/weights/part_0/Adam"
  input: "save/RestoreV2_19"
  attr {
    key: "T"
    value {
      type: DT_FLOAT
    }
  }
  attr {
    key: "_class"
    value {
      list {
        s: "loc:@linear/zipcode/weights/part_0"
      }
    }
  }
  attr {
    key: "_output_shapes"
    value {
      list {
        shape {
          dim {
            size: 1000
          }
          dim {
            size: 1
          }
        }
      }
    }
  }
  attr {
    key: "use_locking"
    value {
      b: true
    }
  }
  attr {
    key: "validate_shape"
    value {
      b: true
    }
  }
}
node {
  name: "save/RestoreV2_20/tensor_names"
  op: "Const"
  attr {
    key: "_output_shapes"
    value {
      list {
        shape {
          dim {
            size: 1
          }
        }
      }
    }
  }
  attr {
    key: "dtype"
    value {
      type: DT_STRING
    }
  }
  attr {
    key: "value"
    value {
      tensor {
        dtype: DT_STRING
        tensor_shape {
          dim {
            size: 1
          }
        }
        string_val: "linear/zipcode/weights/Adam_1"
      }
    }
  }
}
node {
  name: "save/RestoreV2_20/shape_and_slices"
  op: "Const"
  attr {
    key: "_output_shapes"
    value {
      list {
        shape {
          dim {
            size: 1
          }
        }
      }
    }
  }
  attr {
    key: "dtype"
    value {
      type: DT_STRING
    }
  }
  attr {
    key: "value"
    value {
      tensor {
        dtype: DT_STRING
        tensor_shape {
          dim {
            size: 1
          }
        }
        string_val: "1000 1 0,1000:0,1"
      }
    }
  }
}
node {
  name: "save/RestoreV2_20"
  op: "RestoreV2"
  input: "save/Const"
  input: "save/RestoreV2_20/tensor_names"
  input: "save/RestoreV2_20/shape_and_slices"
  attr {
    key: "_output_shapes"
    value {
      list {
        shape {
          unknown_rank: true
        }
      }
    }
  }
  attr {
    key: "dtypes"
    value {
      list {
        type: DT_FLOAT
      }
    }
  }
}
node {
  name: "save/Assign_20"
  op: "Assign"
  input: "linear/zipcode/weights/part_0/Adam_1"
  input: "save/RestoreV2_20"
  attr {
    key: "T"
    value {
      type: DT_FLOAT
    }
  }
  attr {
    key: "_class"
    value {
      list {
        s: "loc:@linear/zipcode/weights/part_0"
      }
    }
  }
  attr {
    key: "_output_shapes"
    value {
      list {
        shape {
          dim {
            size: 1000
          }
          dim {
            size: 1
          }
        }
      }
    }
  }
  attr {
    key: "use_locking"
    value {
      b: true
    }
  }
  attr {
    key: "validate_shape"
    value {
      b: true
    }
  }
}
node {
  name: "save/restore_shard"
  op: "NoOp"
  input: "^save/Assign"
  input: "^save/Assign_1"
  input: "^save/Assign_2"
  input: "^save/Assign_3"
  input: "^save/Assign_4"
  input: "^save/Assign_5"
  input: "^save/Assign_6"
  input: "^save/Assign_7"
  input: "^save/Assign_8"
  input: "^save/Assign_9"
  input: "^save/Assign_10"
  input: "^save/Assign_11"
  input: "^save/Assign_12"
  input: "^save/Assign_13"
  input: "^save/Assign_14"
  input: "^save/Assign_15"
  input: "^save/Assign_16"
  input: "^save/Assign_17"
  input: "^save/Assign_18"
  input: "^save/Assign_19"
  input: "^save/Assign_20"
}
node {
  name: "save/restore_all"
  op: "NoOp"
  input: "^save/restore_shard"
}
versions {
  producer: 17
}
